{"format": "layers-model", "generatedBy": "keras v3.8.0", "convertedBy": "TensorFlow.js Converter v4.22.0", "modelTopology": {"keras_version": "3.8.0", "backend": "tensorflow", "model_config": {"class_name": "Functional", "config": {"name": "functional", "trainable": true, "layers": [{"class_name": "InputLayer", "config": {"batch_shape": [null, 224, 224, 3], "dtype": "float32", "sparse": false, "name": "input_layer"}, "name": "input_layer", "inbound_nodes": []}, {"class_name": "Rescaling", "config": {"name": "rescaling", "trainable": false, "dtype": {"module": "keras", "class_name": "DTypePolicy", "config": {"name": "float32"}, "registered_name": null}, "scale": 0.00784313725490196, "offset": -1.0}, "name": "rescaling", "inbound_nodes": [{"args": [{"class_name": "__keras_tensor__", "config": {"shape": [null, 224, 224, 3], "dtype": "float32", "keras_history": ["input_layer", 0, 0]}}], "kwargs": {}}]}, {"class_name": "Conv2D", "config": {"name": "conv", "trainable": false, "dtype": {"module": "keras", "class_name": "DTypePolicy", "config": {"name": "float32"}, "registered_name": null}, "filters": 16, "kernel_size": [3, 3], "strides": [2, 2], "padding": "same", "data_format": "channels_last", "dilation_rate": [1, 1], "groups": 1, "activation": "linear", "use_bias": false, "kernel_initializer": {"module": "keras.initializers", "class_name": "GlorotUniform", "config": {"seed": null}, "registered_name": null}, "bias_initializer": {"module": "keras.initializers", "class_name": "Zeros", "config": {}, "registered_name": null}, "kernel_regularizer": null, "bias_regularizer": null, "activity_regularizer": null, "kernel_constraint": null, "bias_constraint": null}, "name": "conv", "inbound_nodes": [{"args": [{"class_name": "__keras_tensor__", "config": {"shape": [null, 224, 224, 3], "dtype": "float32", "keras_history": ["rescaling", 0, 0]}}], "kwargs": {}}]}, {"class_name": "BatchNormalization", "config": {"name": "conv_bn", "trainable": false, "dtype": {"module": "keras", "class_name": "DTypePolicy", "config": {"name": "float32"}, "registered_name": null}, "axis": -1, "momentum": 0.999, "epsilon": 0.001, "center": true, "scale": true, "beta_initializer": {"module": "keras.initializers", "class_name": "Zeros", "config": {}, "registered_name": null}, "gamma_initializer": {"module": "keras.initializers", "class_name": "Ones", "config": {}, "registered_name": null}, "moving_mean_initializer": {"module": "keras.initializers", "class_name": "Zeros", "config": {}, "registered_name": null}, "moving_variance_initializer": {"module": "keras.initializers", "class_name": "Ones", "config": {}, "registered_name": null}, "beta_regularizer": null, "gamma_regularizer": null, "beta_constraint": null, "gamma_constraint": null, "synchronized": false}, "name": "conv_bn", "inbound_nodes": [{"args": [{"class_name": "__keras_tensor__", "config": {"shape": [null, 112, 112, 16], "dtype": "float32", "keras_history": ["conv", 0, 0]}}], "kwargs": {"mask": null}}]}, {"class_name": "Activation", "config": {"name": "activation", "trainable": false, "dtype": {"module": "keras", "class_name": "DTypePolicy", "config": {"name": "float32"}, "registered_name": null}, "activation": "hard_silu"}, "name": "activation", "inbound_nodes": [{"args": [{"class_name": "__keras_tensor__", "config": {"shape": [null, 112, 112, 16], "dtype": "float32", "keras_history": ["conv_bn", 0, 0]}}], "kwargs": {}}]}, {"class_name": "ZeroPadding2D", "config": {"name": "expanded_conv_depthwise_pad", "trainable": false, "dtype": {"module": "keras", "class_name": "DTypePolicy", "config": {"name": "float32"}, "registered_name": null}, "padding": [[0, 1], [0, 1]], "data_format": "channels_last"}, "name": "expanded_conv_depthwise_pad", "inbound_nodes": [{"args": [{"class_name": "__keras_tensor__", "config": {"shape": [null, 112, 112, 16], "dtype": "float32", "keras_history": ["activation", 0, 0]}}], "kwargs": {}}]}, {"class_name": "DepthwiseConv2D", "config": {"name": "expanded_conv_depthwise", "trainable": false, "dtype": {"module": "keras", "class_name": "DTypePolicy", "config": {"name": "float32"}, "registered_name": null}, "depth_multiplier": 1, "kernel_size": [3, 3], "strides": [2, 2], "padding": "valid", "data_format": "channels_last", "dilation_rate": [1, 1], "activation": "linear", "use_bias": false, "depthwise_initializer": {"module": "keras.initializers", "class_name": "GlorotUniform", "config": {"seed": null}, "registered_name": null}, "bias_initializer": {"module": "keras.initializers", "class_name": "Zeros", "config": {}, "registered_name": null}, "depthwise_regularizer": null, "bias_regularizer": null, "activity_regularizer": null, "depthwise_constraint": null, "bias_constraint": null}, "name": "expanded_conv_depthwise", "inbound_nodes": [{"args": [{"class_name": "__keras_tensor__", "config": {"shape": [null, 113, 113, 16], "dtype": "float32", "keras_history": ["expanded_conv_depthwise_pad", 0, 0]}}], "kwargs": {}}]}, {"class_name": "BatchNormalization", "config": {"name": "expanded_conv_depthwise_bn", "trainable": false, "dtype": {"module": "keras", "class_name": "DTypePolicy", "config": {"name": "float32"}, "registered_name": null}, "axis": -1, "momentum": 0.999, "epsilon": 0.001, "center": true, "scale": true, "beta_initializer": {"module": "keras.initializers", "class_name": "Zeros", "config": {}, "registered_name": null}, "gamma_initializer": {"module": "keras.initializers", "class_name": "Ones", "config": {}, "registered_name": null}, "moving_mean_initializer": {"module": "keras.initializers", "class_name": "Zeros", "config": {}, "registered_name": null}, "moving_variance_initializer": {"module": "keras.initializers", "class_name": "Ones", "config": {}, "registered_name": null}, "beta_regularizer": null, "gamma_regularizer": null, "beta_constraint": null, "gamma_constraint": null, "synchronized": false}, "name": "expanded_conv_depthwise_bn", "inbound_nodes": [{"args": [{"class_name": "__keras_tensor__", "config": {"shape": [null, 56, 56, 16], "dtype": "float32", "keras_history": ["expanded_conv_depthwise", 0, 0]}}], "kwargs": {"mask": null}}]}, {"class_name": "ReLU", "config": {"name": "re_lu", "trainable": false, "dtype": {"module": "keras", "class_name": "DTypePolicy", "config": {"name": "float32"}, "registered_name": null}, "max_value": null, "negative_slope": 0.0, "threshold": 0.0}, "name": "re_lu", "inbound_nodes": [{"args": [{"class_name": "__keras_tensor__", "config": {"shape": [null, 56, 56, 16], "dtype": "float32", "keras_history": ["expanded_conv_depthwise_bn", 0, 0]}}], "kwargs": {}}]}, {"class_name": "GlobalAveragePooling2D", "config": {"name": "expanded_conv_squeeze_excite_avg_pool", "trainable": false, "dtype": {"module": "keras", "class_name": "DTypePolicy", "config": {"name": "float32"}, "registered_name": null}, "data_format": "channels_last", "keepdims": true}, "name": "expanded_conv_squeeze_excite_avg_pool", "inbound_nodes": [{"args": [{"class_name": "__keras_tensor__", "config": {"shape": [null, 56, 56, 16], "dtype": "float32", "keras_history": ["re_lu", 0, 0]}}], "kwargs": {}}]}, {"class_name": "Conv2D", "config": {"name": "expanded_conv_squeeze_excite_conv", "trainable": false, "dtype": {"module": "keras", "class_name": "DTypePolicy", "config": {"name": "float32"}, "registered_name": null}, "filters": 8, "kernel_size": [1, 1], "strides": [1, 1], "padding": "same", "data_format": "channels_last", "dilation_rate": [1, 1], "groups": 1, "activation": "linear", "use_bias": true, "kernel_initializer": {"module": "keras.initializers", "class_name": "GlorotUniform", "config": {"seed": null}, "registered_name": null}, "bias_initializer": {"module": "keras.initializers", "class_name": "Zeros", "config": {}, "registered_name": null}, "kernel_regularizer": null, "bias_regularizer": null, "activity_regularizer": null, "kernel_constraint": null, "bias_constraint": null}, "name": "expanded_conv_squeeze_excite_conv", "inbound_nodes": [{"args": [{"class_name": "__keras_tensor__", "config": {"shape": [null, 1, 1, 16], "dtype": "float32", "keras_history": ["expanded_conv_squeeze_excite_avg_pool", 0, 0]}}], "kwargs": {}}]}, {"class_name": "ReLU", "config": {"name": "expanded_conv_squeeze_excite_relu", "trainable": false, "dtype": {"module": "keras", "class_name": "DTypePolicy", "config": {"name": "float32"}, "registered_name": null}, "max_value": null, "negative_slope": 0.0, "threshold": 0.0}, "name": "expanded_conv_squeeze_excite_relu", "inbound_nodes": [{"args": [{"class_name": "__keras_tensor__", "config": {"shape": [null, 1, 1, 8], "dtype": "float32", "keras_history": ["expanded_conv_squeeze_excite_conv", 0, 0]}}], "kwargs": {}}]}, {"class_name": "Conv2D", "config": {"name": "expanded_conv_squeeze_excite_conv_1", "trainable": false, "dtype": {"module": "keras", "class_name": "DTypePolicy", "config": {"name": "float32"}, "registered_name": null}, "filters": 16, "kernel_size": [1, 1], "strides": [1, 1], "padding": "same", "data_format": "channels_last", "dilation_rate": [1, 1], "groups": 1, "activation": "linear", "use_bias": true, "kernel_initializer": {"module": "keras.initializers", "class_name": "GlorotUniform", "config": {"seed": null}, "registered_name": null}, "bias_initializer": {"module": "keras.initializers", "class_name": "Zeros", "config": {}, "registered_name": null}, "kernel_regularizer": null, "bias_regularizer": null, "activity_regularizer": null, "kernel_constraint": null, "bias_constraint": null}, "name": "expanded_conv_squeeze_excite_conv_1", "inbound_nodes": [{"args": [{"class_name": "__keras_tensor__", "config": {"shape": [null, 1, 1, 8], "dtype": "float32", "keras_history": ["expanded_conv_squeeze_excite_relu", 0, 0]}}], "kwargs": {}}]}, {"class_name": "Add", "config": {"name": "add"}, "name": "add", "inbound_nodes": [{"args": [{"class_name": "__keras_tensor__", "config": {"shape": [null, 1, 1, 16], "dtype": "float32", "keras_history": ["expanded_conv_squeeze_excite_conv_1", 0, 0]}}, 3.0], "kwargs": {}}]}, {"class_name": "ReLU", "config": {"name": "re_lu_1", "trainable": false, "dtype": {"module": "keras", "class_name": "DTypePolicy", "config": {"name": "float32"}, "registered_name": null}, "max_value": 6.0, "negative_slope": 0.0, "threshold": 0.0}, "name": "re_lu_1", "inbound_nodes": [{"args": [{"class_name": "__keras_tensor__", "config": {"shape": [null, 1, 1, 16], "dtype": "float32", "keras_history": ["add", 0, 0]}}], "kwargs": {}}]}, {"class_name": "Multiply", "config": {"name": "multiply"}, "name": "multiply", "inbound_nodes": [{"args": [{"class_name": "__keras_tensor__", "config": {"shape": [null, 1, 1, 16], "dtype": "float32", "keras_history": ["re_lu_1", 0, 0]}}, 0.16666666666666666], "kwargs": {}}]}, {"class_name": "Multiply", "config": {"name": "expanded_conv_squeeze_excite_mul", "trainable": false, "dtype": {"module": "keras", "class_name": "DTypePolicy", "config": {"name": "float32"}, "registered_name": null}}, "name": "expanded_conv_squeeze_excite_mul", "inbound_nodes": [{"args": [[{"class_name": "__keras_tensor__", "config": {"shape": [null, 56, 56, 16], "dtype": "float32", "keras_history": ["re_lu", 0, 0]}}, {"class_name": "__keras_tensor__", "config": {"shape": [null, 1, 1, 16], "dtype": "float32", "keras_history": ["multiply", 0, 0]}}]], "kwargs": {}}]}, {"class_name": "Conv2D", "config": {"name": "expanded_conv_project", "trainable": false, "dtype": {"module": "keras", "class_name": "DTypePolicy", "config": {"name": "float32"}, "registered_name": null}, "filters": 16, "kernel_size": [1, 1], "strides": [1, 1], "padding": "same", "data_format": "channels_last", "dilation_rate": [1, 1], "groups": 1, "activation": "linear", "use_bias": false, "kernel_initializer": {"module": "keras.initializers", "class_name": "GlorotUniform", "config": {"seed": null}, "registered_name": null}, "bias_initializer": {"module": "keras.initializers", "class_name": "Zeros", "config": {}, "registered_name": null}, "kernel_regularizer": null, "bias_regularizer": null, "activity_regularizer": null, "kernel_constraint": null, "bias_constraint": null}, "name": "expanded_conv_project", "inbound_nodes": [{"args": [{"class_name": "__keras_tensor__", "config": {"shape": [null, 56, 56, 16], "dtype": "float32", "keras_history": ["expanded_conv_squeeze_excite_mul", 0, 0]}}], "kwargs": {}}]}, {"class_name": "BatchNormalization", "config": {"name": "expanded_conv_project_bn", "trainable": false, "dtype": {"module": "keras", "class_name": "DTypePolicy", "config": {"name": "float32"}, "registered_name": null}, "axis": -1, "momentum": 0.999, "epsilon": 0.001, "center": true, "scale": true, "beta_initializer": {"module": "keras.initializers", "class_name": "Zeros", "config": {}, "registered_name": null}, "gamma_initializer": {"module": "keras.initializers", "class_name": "Ones", "config": {}, "registered_name": null}, "moving_mean_initializer": {"module": "keras.initializers", "class_name": "Zeros", "config": {}, "registered_name": null}, "moving_variance_initializer": {"module": "keras.initializers", "class_name": "Ones", "config": {}, "registered_name": null}, "beta_regularizer": null, "gamma_regularizer": null, "beta_constraint": null, "gamma_constraint": null, "synchronized": false}, "name": "expanded_conv_project_bn", "inbound_nodes": [{"args": [{"class_name": "__keras_tensor__", "config": {"shape": [null, 56, 56, 16], "dtype": "float32", "keras_history": ["expanded_conv_project", 0, 0]}}], "kwargs": {"mask": null}}]}, {"class_name": "Conv2D", "config": {"name": "expanded_conv_1_expand", "trainable": false, "dtype": {"module": "keras", "class_name": "DTypePolicy", "config": {"name": "float32"}, "registered_name": null}, "filters": 72, "kernel_size": [1, 1], "strides": [1, 1], "padding": "same", "data_format": "channels_last", "dilation_rate": [1, 1], "groups": 1, "activation": "linear", "use_bias": false, "kernel_initializer": {"module": "keras.initializers", "class_name": "GlorotUniform", "config": {"seed": null}, "registered_name": null}, "bias_initializer": {"module": "keras.initializers", "class_name": "Zeros", "config": {}, "registered_name": null}, "kernel_regularizer": null, "bias_regularizer": null, "activity_regularizer": null, "kernel_constraint": null, "bias_constraint": null}, "name": "expanded_conv_1_expand", "inbound_nodes": [{"args": [{"class_name": "__keras_tensor__", "config": {"shape": [null, 56, 56, 16], "dtype": "float32", "keras_history": ["expanded_conv_project_bn", 0, 0]}}], "kwargs": {}}]}, {"class_name": "BatchNormalization", "config": {"name": "expanded_conv_1_expand_bn", "trainable": false, "dtype": {"module": "keras", "class_name": "DTypePolicy", "config": {"name": "float32"}, "registered_name": null}, "axis": -1, "momentum": 0.999, "epsilon": 0.001, "center": true, "scale": true, "beta_initializer": {"module": "keras.initializers", "class_name": "Zeros", "config": {}, "registered_name": null}, "gamma_initializer": {"module": "keras.initializers", "class_name": "Ones", "config": {}, "registered_name": null}, "moving_mean_initializer": {"module": "keras.initializers", "class_name": "Zeros", "config": {}, "registered_name": null}, "moving_variance_initializer": {"module": "keras.initializers", "class_name": "Ones", "config": {}, "registered_name": null}, "beta_regularizer": null, "gamma_regularizer": null, "beta_constraint": null, "gamma_constraint": null, "synchronized": false}, "name": "expanded_conv_1_expand_bn", "inbound_nodes": [{"args": [{"class_name": "__keras_tensor__", "config": {"shape": [null, 56, 56, 72], "dtype": "float32", "keras_history": ["expanded_conv_1_expand", 0, 0]}}], "kwargs": {"mask": null}}]}, {"class_name": "ReLU", "config": {"name": "re_lu_2", "trainable": false, "dtype": {"module": "keras", "class_name": "DTypePolicy", "config": {"name": "float32"}, "registered_name": null}, "max_value": null, "negative_slope": 0.0, "threshold": 0.0}, "name": "re_lu_2", "inbound_nodes": [{"args": [{"class_name": "__keras_tensor__", "config": {"shape": [null, 56, 56, 72], "dtype": "float32", "keras_history": ["expanded_conv_1_expand_bn", 0, 0]}}], "kwargs": {}}]}, {"class_name": "ZeroPadding2D", "config": {"name": "expanded_conv_1_depthwise_pad", "trainable": false, "dtype": {"module": "keras", "class_name": "DTypePolicy", "config": {"name": "float32"}, "registered_name": null}, "padding": [[0, 1], [0, 1]], "data_format": "channels_last"}, "name": "expanded_conv_1_depthwise_pad", "inbound_nodes": [{"args": [{"class_name": "__keras_tensor__", "config": {"shape": [null, 56, 56, 72], "dtype": "float32", "keras_history": ["re_lu_2", 0, 0]}}], "kwargs": {}}]}, {"class_name": "DepthwiseConv2D", "config": {"name": "expanded_conv_1_depthwise", "trainable": false, "dtype": {"module": "keras", "class_name": "DTypePolicy", "config": {"name": "float32"}, "registered_name": null}, "depth_multiplier": 1, "kernel_size": [3, 3], "strides": [2, 2], "padding": "valid", "data_format": "channels_last", "dilation_rate": [1, 1], "activation": "linear", "use_bias": false, "depthwise_initializer": {"module": "keras.initializers", "class_name": "GlorotUniform", "config": {"seed": null}, "registered_name": null}, "bias_initializer": {"module": "keras.initializers", "class_name": "Zeros", "config": {}, "registered_name": null}, "depthwise_regularizer": null, "bias_regularizer": null, "activity_regularizer": null, "depthwise_constraint": null, "bias_constraint": null}, "name": "expanded_conv_1_depthwise", "inbound_nodes": [{"args": [{"class_name": "__keras_tensor__", "config": {"shape": [null, 57, 57, 72], "dtype": "float32", "keras_history": ["expanded_conv_1_depthwise_pad", 0, 0]}}], "kwargs": {}}]}, {"class_name": "BatchNormalization", "config": {"name": "expanded_conv_1_depthwise_bn", "trainable": false, "dtype": {"module": "keras", "class_name": "DTypePolicy", "config": {"name": "float32"}, "registered_name": null}, "axis": -1, "momentum": 0.999, "epsilon": 0.001, "center": true, "scale": true, "beta_initializer": {"module": "keras.initializers", "class_name": "Zeros", "config": {}, "registered_name": null}, "gamma_initializer": {"module": "keras.initializers", "class_name": "Ones", "config": {}, "registered_name": null}, "moving_mean_initializer": {"module": "keras.initializers", "class_name": "Zeros", "config": {}, "registered_name": null}, "moving_variance_initializer": {"module": "keras.initializers", "class_name": "Ones", "config": {}, "registered_name": null}, "beta_regularizer": null, "gamma_regularizer": null, "beta_constraint": null, "gamma_constraint": null, "synchronized": false}, "name": "expanded_conv_1_depthwise_bn", "inbound_nodes": [{"args": [{"class_name": "__keras_tensor__", "config": {"shape": [null, 28, 28, 72], "dtype": "float32", "keras_history": ["expanded_conv_1_depthwise", 0, 0]}}], "kwargs": {"mask": null}}]}, {"class_name": "ReLU", "config": {"name": "re_lu_3", "trainable": false, "dtype": {"module": "keras", "class_name": "DTypePolicy", "config": {"name": "float32"}, "registered_name": null}, "max_value": null, "negative_slope": 0.0, "threshold": 0.0}, "name": "re_lu_3", "inbound_nodes": [{"args": [{"class_name": "__keras_tensor__", "config": {"shape": [null, 28, 28, 72], "dtype": "float32", "keras_history": ["expanded_conv_1_depthwise_bn", 0, 0]}}], "kwargs": {}}]}, {"class_name": "Conv2D", "config": {"name": "expanded_conv_1_project", "trainable": false, "dtype": {"module": "keras", "class_name": "DTypePolicy", "config": {"name": "float32"}, "registered_name": null}, "filters": 24, "kernel_size": [1, 1], "strides": [1, 1], "padding": "same", "data_format": "channels_last", "dilation_rate": [1, 1], "groups": 1, "activation": "linear", "use_bias": false, "kernel_initializer": {"module": "keras.initializers", "class_name": "GlorotUniform", "config": {"seed": null}, "registered_name": null}, "bias_initializer": {"module": "keras.initializers", "class_name": "Zeros", "config": {}, "registered_name": null}, "kernel_regularizer": null, "bias_regularizer": null, "activity_regularizer": null, "kernel_constraint": null, "bias_constraint": null}, "name": "expanded_conv_1_project", "inbound_nodes": [{"args": [{"class_name": "__keras_tensor__", "config": {"shape": [null, 28, 28, 72], "dtype": "float32", "keras_history": ["re_lu_3", 0, 0]}}], "kwargs": {}}]}, {"class_name": "BatchNormalization", "config": {"name": "expanded_conv_1_project_bn", "trainable": false, "dtype": {"module": "keras", "class_name": "DTypePolicy", "config": {"name": "float32"}, "registered_name": null}, "axis": -1, "momentum": 0.999, "epsilon": 0.001, "center": true, "scale": true, "beta_initializer": {"module": "keras.initializers", "class_name": "Zeros", "config": {}, "registered_name": null}, "gamma_initializer": {"module": "keras.initializers", "class_name": "Ones", "config": {}, "registered_name": null}, "moving_mean_initializer": {"module": "keras.initializers", "class_name": "Zeros", "config": {}, "registered_name": null}, "moving_variance_initializer": {"module": "keras.initializers", "class_name": "Ones", "config": {}, "registered_name": null}, "beta_regularizer": null, "gamma_regularizer": null, "beta_constraint": null, "gamma_constraint": null, "synchronized": false}, "name": "expanded_conv_1_project_bn", "inbound_nodes": [{"args": [{"class_name": "__keras_tensor__", "config": {"shape": [null, 28, 28, 24], "dtype": "float32", "keras_history": ["expanded_conv_1_project", 0, 0]}}], "kwargs": {"mask": null}}]}, {"class_name": "Conv2D", "config": {"name": "expanded_conv_2_expand", "trainable": false, "dtype": {"module": "keras", "class_name": "DTypePolicy", "config": {"name": "float32"}, "registered_name": null}, "filters": 88, "kernel_size": [1, 1], "strides": [1, 1], "padding": "same", "data_format": "channels_last", "dilation_rate": [1, 1], "groups": 1, "activation": "linear", "use_bias": false, "kernel_initializer": {"module": "keras.initializers", "class_name": "GlorotUniform", "config": {"seed": null}, "registered_name": null}, "bias_initializer": {"module": "keras.initializers", "class_name": "Zeros", "config": {}, "registered_name": null}, "kernel_regularizer": null, "bias_regularizer": null, "activity_regularizer": null, "kernel_constraint": null, "bias_constraint": null}, "name": "expanded_conv_2_expand", "inbound_nodes": [{"args": [{"class_name": "__keras_tensor__", "config": {"shape": [null, 28, 28, 24], "dtype": "float32", "keras_history": ["expanded_conv_1_project_bn", 0, 0]}}], "kwargs": {}}]}, {"class_name": "BatchNormalization", "config": {"name": "expanded_conv_2_expand_bn", "trainable": false, "dtype": {"module": "keras", "class_name": "DTypePolicy", "config": {"name": "float32"}, "registered_name": null}, "axis": -1, "momentum": 0.999, "epsilon": 0.001, "center": true, "scale": true, "beta_initializer": {"module": "keras.initializers", "class_name": "Zeros", "config": {}, "registered_name": null}, "gamma_initializer": {"module": "keras.initializers", "class_name": "Ones", "config": {}, "registered_name": null}, "moving_mean_initializer": {"module": "keras.initializers", "class_name": "Zeros", "config": {}, "registered_name": null}, "moving_variance_initializer": {"module": "keras.initializers", "class_name": "Ones", "config": {}, "registered_name": null}, "beta_regularizer": null, "gamma_regularizer": null, "beta_constraint": null, "gamma_constraint": null, "synchronized": false}, "name": "expanded_conv_2_expand_bn", "inbound_nodes": [{"args": [{"class_name": "__keras_tensor__", "config": {"shape": [null, 28, 28, 88], "dtype": "float32", "keras_history": ["expanded_conv_2_expand", 0, 0]}}], "kwargs": {"mask": null}}]}, {"class_name": "ReLU", "config": {"name": "re_lu_4", "trainable": false, "dtype": {"module": "keras", "class_name": "DTypePolicy", "config": {"name": "float32"}, "registered_name": null}, "max_value": null, "negative_slope": 0.0, "threshold": 0.0}, "name": "re_lu_4", "inbound_nodes": [{"args": [{"class_name": "__keras_tensor__", "config": {"shape": [null, 28, 28, 88], "dtype": "float32", "keras_history": ["expanded_conv_2_expand_bn", 0, 0]}}], "kwargs": {}}]}, {"class_name": "DepthwiseConv2D", "config": {"name": "expanded_conv_2_depthwise", "trainable": false, "dtype": {"module": "keras", "class_name": "DTypePolicy", "config": {"name": "float32"}, "registered_name": null}, "depth_multiplier": 1, "kernel_size": [3, 3], "strides": [1, 1], "padding": "same", "data_format": "channels_last", "dilation_rate": [1, 1], "activation": "linear", "use_bias": false, "depthwise_initializer": {"module": "keras.initializers", "class_name": "GlorotUniform", "config": {"seed": null}, "registered_name": null}, "bias_initializer": {"module": "keras.initializers", "class_name": "Zeros", "config": {}, "registered_name": null}, "depthwise_regularizer": null, "bias_regularizer": null, "activity_regularizer": null, "depthwise_constraint": null, "bias_constraint": null}, "name": "expanded_conv_2_depthwise", "inbound_nodes": [{"args": [{"class_name": "__keras_tensor__", "config": {"shape": [null, 28, 28, 88], "dtype": "float32", "keras_history": ["re_lu_4", 0, 0]}}], "kwargs": {}}]}, {"class_name": "BatchNormalization", "config": {"name": "expanded_conv_2_depthwise_bn", "trainable": false, "dtype": {"module": "keras", "class_name": "DTypePolicy", "config": {"name": "float32"}, "registered_name": null}, "axis": -1, "momentum": 0.999, "epsilon": 0.001, "center": true, "scale": true, "beta_initializer": {"module": "keras.initializers", "class_name": "Zeros", "config": {}, "registered_name": null}, "gamma_initializer": {"module": "keras.initializers", "class_name": "Ones", "config": {}, "registered_name": null}, "moving_mean_initializer": {"module": "keras.initializers", "class_name": "Zeros", "config": {}, "registered_name": null}, "moving_variance_initializer": {"module": "keras.initializers", "class_name": "Ones", "config": {}, "registered_name": null}, "beta_regularizer": null, "gamma_regularizer": null, "beta_constraint": null, "gamma_constraint": null, "synchronized": false}, "name": "expanded_conv_2_depthwise_bn", "inbound_nodes": [{"args": [{"class_name": "__keras_tensor__", "config": {"shape": [null, 28, 28, 88], "dtype": "float32", "keras_history": ["expanded_conv_2_depthwise", 0, 0]}}], "kwargs": {"mask": null}}]}, {"class_name": "ReLU", "config": {"name": "re_lu_5", "trainable": false, "dtype": {"module": "keras", "class_name": "DTypePolicy", "config": {"name": "float32"}, "registered_name": null}, "max_value": null, "negative_slope": 0.0, "threshold": 0.0}, "name": "re_lu_5", "inbound_nodes": [{"args": [{"class_name": "__keras_tensor__", "config": {"shape": [null, 28, 28, 88], "dtype": "float32", "keras_history": ["expanded_conv_2_depthwise_bn", 0, 0]}}], "kwargs": {}}]}, {"class_name": "Conv2D", "config": {"name": "expanded_conv_2_project", "trainable": false, "dtype": {"module": "keras", "class_name": "DTypePolicy", "config": {"name": "float32"}, "registered_name": null}, "filters": 24, "kernel_size": [1, 1], "strides": [1, 1], "padding": "same", "data_format": "channels_last", "dilation_rate": [1, 1], "groups": 1, "activation": "linear", "use_bias": false, "kernel_initializer": {"module": "keras.initializers", "class_name": "GlorotUniform", "config": {"seed": null}, "registered_name": null}, "bias_initializer": {"module": "keras.initializers", "class_name": "Zeros", "config": {}, "registered_name": null}, "kernel_regularizer": null, "bias_regularizer": null, "activity_regularizer": null, "kernel_constraint": null, "bias_constraint": null}, "name": "expanded_conv_2_project", "inbound_nodes": [{"args": [{"class_name": "__keras_tensor__", "config": {"shape": [null, 28, 28, 88], "dtype": "float32", "keras_history": ["re_lu_5", 0, 0]}}], "kwargs": {}}]}, {"class_name": "BatchNormalization", "config": {"name": "expanded_conv_2_project_bn", "trainable": false, "dtype": {"module": "keras", "class_name": "DTypePolicy", "config": {"name": "float32"}, "registered_name": null}, "axis": -1, "momentum": 0.999, "epsilon": 0.001, "center": true, "scale": true, "beta_initializer": {"module": "keras.initializers", "class_name": "Zeros", "config": {}, "registered_name": null}, "gamma_initializer": {"module": "keras.initializers", "class_name": "Ones", "config": {}, "registered_name": null}, "moving_mean_initializer": {"module": "keras.initializers", "class_name": "Zeros", "config": {}, "registered_name": null}, "moving_variance_initializer": {"module": "keras.initializers", "class_name": "Ones", "config": {}, "registered_name": null}, "beta_regularizer": null, "gamma_regularizer": null, "beta_constraint": null, "gamma_constraint": null, "synchronized": false}, "name": "expanded_conv_2_project_bn", "inbound_nodes": [{"args": [{"class_name": "__keras_tensor__", "config": {"shape": [null, 28, 28, 24], "dtype": "float32", "keras_history": ["expanded_conv_2_project", 0, 0]}}], "kwargs": {"mask": null}}]}, {"class_name": "Add", "config": {"name": "expanded_conv_2_add", "trainable": false, "dtype": {"module": "keras", "class_name": "DTypePolicy", "config": {"name": "float32"}, "registered_name": null}}, "name": "expanded_conv_2_add", "inbound_nodes": [{"args": [[{"class_name": "__keras_tensor__", "config": {"shape": [null, 28, 28, 24], "dtype": "float32", "keras_history": ["expanded_conv_1_project_bn", 0, 0]}}, {"class_name": "__keras_tensor__", "config": {"shape": [null, 28, 28, 24], "dtype": "float32", "keras_history": ["expanded_conv_2_project_bn", 0, 0]}}]], "kwargs": {}}]}, {"class_name": "Conv2D", "config": {"name": "expanded_conv_3_expand", "trainable": false, "dtype": {"module": "keras", "class_name": "DTypePolicy", "config": {"name": "float32"}, "registered_name": null}, "filters": 96, "kernel_size": [1, 1], "strides": [1, 1], "padding": "same", "data_format": "channels_last", "dilation_rate": [1, 1], "groups": 1, "activation": "linear", "use_bias": false, "kernel_initializer": {"module": "keras.initializers", "class_name": "GlorotUniform", "config": {"seed": null}, "registered_name": null}, "bias_initializer": {"module": "keras.initializers", "class_name": "Zeros", "config": {}, "registered_name": null}, "kernel_regularizer": null, "bias_regularizer": null, "activity_regularizer": null, "kernel_constraint": null, "bias_constraint": null}, "name": "expanded_conv_3_expand", "inbound_nodes": [{"args": [{"class_name": "__keras_tensor__", "config": {"shape": [null, 28, 28, 24], "dtype": "float32", "keras_history": ["expanded_conv_2_add", 0, 0]}}], "kwargs": {}}]}, {"class_name": "BatchNormalization", "config": {"name": "expanded_conv_3_expand_bn", "trainable": false, "dtype": {"module": "keras", "class_name": "DTypePolicy", "config": {"name": "float32"}, "registered_name": null}, "axis": -1, "momentum": 0.999, "epsilon": 0.001, "center": true, "scale": true, "beta_initializer": {"module": "keras.initializers", "class_name": "Zeros", "config": {}, "registered_name": null}, "gamma_initializer": {"module": "keras.initializers", "class_name": "Ones", "config": {}, "registered_name": null}, "moving_mean_initializer": {"module": "keras.initializers", "class_name": "Zeros", "config": {}, "registered_name": null}, "moving_variance_initializer": {"module": "keras.initializers", "class_name": "Ones", "config": {}, "registered_name": null}, "beta_regularizer": null, "gamma_regularizer": null, "beta_constraint": null, "gamma_constraint": null, "synchronized": false}, "name": "expanded_conv_3_expand_bn", "inbound_nodes": [{"args": [{"class_name": "__keras_tensor__", "config": {"shape": [null, 28, 28, 96], "dtype": "float32", "keras_history": ["expanded_conv_3_expand", 0, 0]}}], "kwargs": {"mask": null}}]}, {"class_name": "Activation", "config": {"name": "activation_1", "trainable": false, "dtype": {"module": "keras", "class_name": "DTypePolicy", "config": {"name": "float32"}, "registered_name": null}, "activation": "hard_silu"}, "name": "activation_1", "inbound_nodes": [{"args": [{"class_name": "__keras_tensor__", "config": {"shape": [null, 28, 28, 96], "dtype": "float32", "keras_history": ["expanded_conv_3_expand_bn", 0, 0]}}], "kwargs": {}}]}, {"class_name": "ZeroPadding2D", "config": {"name": "expanded_conv_3_depthwise_pad", "trainable": false, "dtype": {"module": "keras", "class_name": "DTypePolicy", "config": {"name": "float32"}, "registered_name": null}, "padding": [[1, 2], [1, 2]], "data_format": "channels_last"}, "name": "expanded_conv_3_depthwise_pad", "inbound_nodes": [{"args": [{"class_name": "__keras_tensor__", "config": {"shape": [null, 28, 28, 96], "dtype": "float32", "keras_history": ["activation_1", 0, 0]}}], "kwargs": {}}]}, {"class_name": "DepthwiseConv2D", "config": {"name": "expanded_conv_3_depthwise", "trainable": false, "dtype": {"module": "keras", "class_name": "DTypePolicy", "config": {"name": "float32"}, "registered_name": null}, "depth_multiplier": 1, "kernel_size": [5, 5], "strides": [2, 2], "padding": "valid", "data_format": "channels_last", "dilation_rate": [1, 1], "activation": "linear", "use_bias": false, "depthwise_initializer": {"module": "keras.initializers", "class_name": "GlorotUniform", "config": {"seed": null}, "registered_name": null}, "bias_initializer": {"module": "keras.initializers", "class_name": "Zeros", "config": {}, "registered_name": null}, "depthwise_regularizer": null, "bias_regularizer": null, "activity_regularizer": null, "depthwise_constraint": null, "bias_constraint": null}, "name": "expanded_conv_3_depthwise", "inbound_nodes": [{"args": [{"class_name": "__keras_tensor__", "config": {"shape": [null, 31, 31, 96], "dtype": "float32", "keras_history": ["expanded_conv_3_depthwise_pad", 0, 0]}}], "kwargs": {}}]}, {"class_name": "BatchNormalization", "config": {"name": "expanded_conv_3_depthwise_bn", "trainable": false, "dtype": {"module": "keras", "class_name": "DTypePolicy", "config": {"name": "float32"}, "registered_name": null}, "axis": -1, "momentum": 0.999, "epsilon": 0.001, "center": true, "scale": true, "beta_initializer": {"module": "keras.initializers", "class_name": "Zeros", "config": {}, "registered_name": null}, "gamma_initializer": {"module": "keras.initializers", "class_name": "Ones", "config": {}, "registered_name": null}, "moving_mean_initializer": {"module": "keras.initializers", "class_name": "Zeros", "config": {}, "registered_name": null}, "moving_variance_initializer": {"module": "keras.initializers", "class_name": "Ones", "config": {}, "registered_name": null}, "beta_regularizer": null, "gamma_regularizer": null, "beta_constraint": null, "gamma_constraint": null, "synchronized": false}, "name": "expanded_conv_3_depthwise_bn", "inbound_nodes": [{"args": [{"class_name": "__keras_tensor__", "config": {"shape": [null, 14, 14, 96], "dtype": "float32", "keras_history": ["expanded_conv_3_depthwise", 0, 0]}}], "kwargs": {"mask": null}}]}, {"class_name": "Activation", "config": {"name": "activation_2", "trainable": false, "dtype": {"module": "keras", "class_name": "DTypePolicy", "config": {"name": "float32"}, "registered_name": null}, "activation": "hard_silu"}, "name": "activation_2", "inbound_nodes": [{"args": [{"class_name": "__keras_tensor__", "config": {"shape": [null, 14, 14, 96], "dtype": "float32", "keras_history": ["expanded_conv_3_depthwise_bn", 0, 0]}}], "kwargs": {}}]}, {"class_name": "GlobalAveragePooling2D", "config": {"name": "expanded_conv_3_squeeze_excite_avg_pool", "trainable": false, "dtype": {"module": "keras", "class_name": "DTypePolicy", "config": {"name": "float32"}, "registered_name": null}, "data_format": "channels_last", "keepdims": true}, "name": "expanded_conv_3_squeeze_excite_avg_pool", "inbound_nodes": [{"args": [{"class_name": "__keras_tensor__", "config": {"shape": [null, 14, 14, 96], "dtype": "float32", "keras_history": ["activation_2", 0, 0]}}], "kwargs": {}}]}, {"class_name": "Conv2D", "config": {"name": "expanded_conv_3_squeeze_excite_conv", "trainable": false, "dtype": {"module": "keras", "class_name": "DTypePolicy", "config": {"name": "float32"}, "registered_name": null}, "filters": 24, "kernel_size": [1, 1], "strides": [1, 1], "padding": "same", "data_format": "channels_last", "dilation_rate": [1, 1], "groups": 1, "activation": "linear", "use_bias": true, "kernel_initializer": {"module": "keras.initializers", "class_name": "GlorotUniform", "config": {"seed": null}, "registered_name": null}, "bias_initializer": {"module": "keras.initializers", "class_name": "Zeros", "config": {}, "registered_name": null}, "kernel_regularizer": null, "bias_regularizer": null, "activity_regularizer": null, "kernel_constraint": null, "bias_constraint": null}, "name": "expanded_conv_3_squeeze_excite_conv", "inbound_nodes": [{"args": [{"class_name": "__keras_tensor__", "config": {"shape": [null, 1, 1, 96], "dtype": "float32", "keras_history": ["expanded_conv_3_squeeze_excite_avg_pool", 0, 0]}}], "kwargs": {}}]}, {"class_name": "ReLU", "config": {"name": "expanded_conv_3_squeeze_excite_relu", "trainable": false, "dtype": {"module": "keras", "class_name": "DTypePolicy", "config": {"name": "float32"}, "registered_name": null}, "max_value": null, "negative_slope": 0.0, "threshold": 0.0}, "name": "expanded_conv_3_squeeze_excite_relu", "inbound_nodes": [{"args": [{"class_name": "__keras_tensor__", "config": {"shape": [null, 1, 1, 24], "dtype": "float32", "keras_history": ["expanded_conv_3_squeeze_excite_conv", 0, 0]}}], "kwargs": {}}]}, {"class_name": "Conv2D", "config": {"name": "expanded_conv_3_squeeze_excite_conv_1", "trainable": false, "dtype": {"module": "keras", "class_name": "DTypePolicy", "config": {"name": "float32"}, "registered_name": null}, "filters": 96, "kernel_size": [1, 1], "strides": [1, 1], "padding": "same", "data_format": "channels_last", "dilation_rate": [1, 1], "groups": 1, "activation": "linear", "use_bias": true, "kernel_initializer": {"module": "keras.initializers", "class_name": "GlorotUniform", "config": {"seed": null}, "registered_name": null}, "bias_initializer": {"module": "keras.initializers", "class_name": "Zeros", "config": {}, "registered_name": null}, "kernel_regularizer": null, "bias_regularizer": null, "activity_regularizer": null, "kernel_constraint": null, "bias_constraint": null}, "name": "expanded_conv_3_squeeze_excite_conv_1", "inbound_nodes": [{"args": [{"class_name": "__keras_tensor__", "config": {"shape": [null, 1, 1, 24], "dtype": "float32", "keras_history": ["expanded_conv_3_squeeze_excite_relu", 0, 0]}}], "kwargs": {}}]}, {"class_name": "Add", "config": {"name": "add_1"}, "name": "add_1", "inbound_nodes": [{"args": [{"class_name": "__keras_tensor__", "config": {"shape": [null, 1, 1, 96], "dtype": "float32", "keras_history": ["expanded_conv_3_squeeze_excite_conv_1", 0, 0]}}, 3.0], "kwargs": {}}]}, {"class_name": "ReLU", "config": {"name": "re_lu_6", "trainable": false, "dtype": {"module": "keras", "class_name": "DTypePolicy", "config": {"name": "float32"}, "registered_name": null}, "max_value": 6.0, "negative_slope": 0.0, "threshold": 0.0}, "name": "re_lu_6", "inbound_nodes": [{"args": [{"class_name": "__keras_tensor__", "config": {"shape": [null, 1, 1, 96], "dtype": "float32", "keras_history": ["add_1", 0, 0]}}], "kwargs": {}}]}, {"class_name": "Multiply", "config": {"name": "multiply_1"}, "name": "multiply_1", "inbound_nodes": [{"args": [{"class_name": "__keras_tensor__", "config": {"shape": [null, 1, 1, 96], "dtype": "float32", "keras_history": ["re_lu_6", 0, 0]}}, 0.16666666666666666], "kwargs": {}}]}, {"class_name": "Multiply", "config": {"name": "expanded_conv_3_squeeze_excite_mul", "trainable": false, "dtype": {"module": "keras", "class_name": "DTypePolicy", "config": {"name": "float32"}, "registered_name": null}}, "name": "expanded_conv_3_squeeze_excite_mul", "inbound_nodes": [{"args": [[{"class_name": "__keras_tensor__", "config": {"shape": [null, 14, 14, 96], "dtype": "float32", "keras_history": ["activation_2", 0, 0]}}, {"class_name": "__keras_tensor__", "config": {"shape": [null, 1, 1, 96], "dtype": "float32", "keras_history": ["multiply_1", 0, 0]}}]], "kwargs": {}}]}, {"class_name": "Conv2D", "config": {"name": "expanded_conv_3_project", "trainable": false, "dtype": {"module": "keras", "class_name": "DTypePolicy", "config": {"name": "float32"}, "registered_name": null}, "filters": 40, "kernel_size": [1, 1], "strides": [1, 1], "padding": "same", "data_format": "channels_last", "dilation_rate": [1, 1], "groups": 1, "activation": "linear", "use_bias": false, "kernel_initializer": {"module": "keras.initializers", "class_name": "GlorotUniform", "config": {"seed": null}, "registered_name": null}, "bias_initializer": {"module": "keras.initializers", "class_name": "Zeros", "config": {}, "registered_name": null}, "kernel_regularizer": null, "bias_regularizer": null, "activity_regularizer": null, "kernel_constraint": null, "bias_constraint": null}, "name": "expanded_conv_3_project", "inbound_nodes": [{"args": [{"class_name": "__keras_tensor__", "config": {"shape": [null, 14, 14, 96], "dtype": "float32", "keras_history": ["expanded_conv_3_squeeze_excite_mul", 0, 0]}}], "kwargs": {}}]}, {"class_name": "BatchNormalization", "config": {"name": "expanded_conv_3_project_bn", "trainable": false, "dtype": {"module": "keras", "class_name": "DTypePolicy", "config": {"name": "float32"}, "registered_name": null}, "axis": -1, "momentum": 0.999, "epsilon": 0.001, "center": true, "scale": true, "beta_initializer": {"module": "keras.initializers", "class_name": "Zeros", "config": {}, "registered_name": null}, "gamma_initializer": {"module": "keras.initializers", "class_name": "Ones", "config": {}, "registered_name": null}, "moving_mean_initializer": {"module": "keras.initializers", "class_name": "Zeros", "config": {}, "registered_name": null}, "moving_variance_initializer": {"module": "keras.initializers", "class_name": "Ones", "config": {}, "registered_name": null}, "beta_regularizer": null, "gamma_regularizer": null, "beta_constraint": null, "gamma_constraint": null, "synchronized": false}, "name": "expanded_conv_3_project_bn", "inbound_nodes": [{"args": [{"class_name": "__keras_tensor__", "config": {"shape": [null, 14, 14, 40], "dtype": "float32", "keras_history": ["expanded_conv_3_project", 0, 0]}}], "kwargs": {"mask": null}}]}, {"class_name": "Conv2D", "config": {"name": "expanded_conv_4_expand", "trainable": false, "dtype": {"module": "keras", "class_name": "DTypePolicy", "config": {"name": "float32"}, "registered_name": null}, "filters": 240, "kernel_size": [1, 1], "strides": [1, 1], "padding": "same", "data_format": "channels_last", "dilation_rate": [1, 1], "groups": 1, "activation": "linear", "use_bias": false, "kernel_initializer": {"module": "keras.initializers", "class_name": "GlorotUniform", "config": {"seed": null}, "registered_name": null}, "bias_initializer": {"module": "keras.initializers", "class_name": "Zeros", "config": {}, "registered_name": null}, "kernel_regularizer": null, "bias_regularizer": null, "activity_regularizer": null, "kernel_constraint": null, "bias_constraint": null}, "name": "expanded_conv_4_expand", "inbound_nodes": [{"args": [{"class_name": "__keras_tensor__", "config": {"shape": [null, 14, 14, 40], "dtype": "float32", "keras_history": ["expanded_conv_3_project_bn", 0, 0]}}], "kwargs": {}}]}, {"class_name": "BatchNormalization", "config": {"name": "expanded_conv_4_expand_bn", "trainable": false, "dtype": {"module": "keras", "class_name": "DTypePolicy", "config": {"name": "float32"}, "registered_name": null}, "axis": -1, "momentum": 0.999, "epsilon": 0.001, "center": true, "scale": true, "beta_initializer": {"module": "keras.initializers", "class_name": "Zeros", "config": {}, "registered_name": null}, "gamma_initializer": {"module": "keras.initializers", "class_name": "Ones", "config": {}, "registered_name": null}, "moving_mean_initializer": {"module": "keras.initializers", "class_name": "Zeros", "config": {}, "registered_name": null}, "moving_variance_initializer": {"module": "keras.initializers", "class_name": "Ones", "config": {}, "registered_name": null}, "beta_regularizer": null, "gamma_regularizer": null, "beta_constraint": null, "gamma_constraint": null, "synchronized": false}, "name": "expanded_conv_4_expand_bn", "inbound_nodes": [{"args": [{"class_name": "__keras_tensor__", "config": {"shape": [null, 14, 14, 240], "dtype": "float32", "keras_history": ["expanded_conv_4_expand", 0, 0]}}], "kwargs": {"mask": null}}]}, {"class_name": "Activation", "config": {"name": "activation_3", "trainable": false, "dtype": {"module": "keras", "class_name": "DTypePolicy", "config": {"name": "float32"}, "registered_name": null}, "activation": "hard_silu"}, "name": "activation_3", "inbound_nodes": [{"args": [{"class_name": "__keras_tensor__", "config": {"shape": [null, 14, 14, 240], "dtype": "float32", "keras_history": ["expanded_conv_4_expand_bn", 0, 0]}}], "kwargs": {}}]}, {"class_name": "DepthwiseConv2D", "config": {"name": "expanded_conv_4_depthwise", "trainable": false, "dtype": {"module": "keras", "class_name": "DTypePolicy", "config": {"name": "float32"}, "registered_name": null}, "depth_multiplier": 1, "kernel_size": [5, 5], "strides": [1, 1], "padding": "same", "data_format": "channels_last", "dilation_rate": [1, 1], "activation": "linear", "use_bias": false, "depthwise_initializer": {"module": "keras.initializers", "class_name": "GlorotUniform", "config": {"seed": null}, "registered_name": null}, "bias_initializer": {"module": "keras.initializers", "class_name": "Zeros", "config": {}, "registered_name": null}, "depthwise_regularizer": null, "bias_regularizer": null, "activity_regularizer": null, "depthwise_constraint": null, "bias_constraint": null}, "name": "expanded_conv_4_depthwise", "inbound_nodes": [{"args": [{"class_name": "__keras_tensor__", "config": {"shape": [null, 14, 14, 240], "dtype": "float32", "keras_history": ["activation_3", 0, 0]}}], "kwargs": {}}]}, {"class_name": "BatchNormalization", "config": {"name": "expanded_conv_4_depthwise_bn", "trainable": false, "dtype": {"module": "keras", "class_name": "DTypePolicy", "config": {"name": "float32"}, "registered_name": null}, "axis": -1, "momentum": 0.999, "epsilon": 0.001, "center": true, "scale": true, "beta_initializer": {"module": "keras.initializers", "class_name": "Zeros", "config": {}, "registered_name": null}, "gamma_initializer": {"module": "keras.initializers", "class_name": "Ones", "config": {}, "registered_name": null}, "moving_mean_initializer": {"module": "keras.initializers", "class_name": "Zeros", "config": {}, "registered_name": null}, "moving_variance_initializer": {"module": "keras.initializers", "class_name": "Ones", "config": {}, "registered_name": null}, "beta_regularizer": null, "gamma_regularizer": null, "beta_constraint": null, "gamma_constraint": null, "synchronized": false}, "name": "expanded_conv_4_depthwise_bn", "inbound_nodes": [{"args": [{"class_name": "__keras_tensor__", "config": {"shape": [null, 14, 14, 240], "dtype": "float32", "keras_history": ["expanded_conv_4_depthwise", 0, 0]}}], "kwargs": {"mask": null}}]}, {"class_name": "Activation", "config": {"name": "activation_4", "trainable": false, "dtype": {"module": "keras", "class_name": "DTypePolicy", "config": {"name": "float32"}, "registered_name": null}, "activation": "hard_silu"}, "name": "activation_4", "inbound_nodes": [{"args": [{"class_name": "__keras_tensor__", "config": {"shape": [null, 14, 14, 240], "dtype": "float32", "keras_history": ["expanded_conv_4_depthwise_bn", 0, 0]}}], "kwargs": {}}]}, {"class_name": "GlobalAveragePooling2D", "config": {"name": "expanded_conv_4_squeeze_excite_avg_pool", "trainable": false, "dtype": {"module": "keras", "class_name": "DTypePolicy", "config": {"name": "float32"}, "registered_name": null}, "data_format": "channels_last", "keepdims": true}, "name": "expanded_conv_4_squeeze_excite_avg_pool", "inbound_nodes": [{"args": [{"class_name": "__keras_tensor__", "config": {"shape": [null, 14, 14, 240], "dtype": "float32", "keras_history": ["activation_4", 0, 0]}}], "kwargs": {}}]}, {"class_name": "Conv2D", "config": {"name": "expanded_conv_4_squeeze_excite_conv", "trainable": false, "dtype": {"module": "keras", "class_name": "DTypePolicy", "config": {"name": "float32"}, "registered_name": null}, "filters": 64, "kernel_size": [1, 1], "strides": [1, 1], "padding": "same", "data_format": "channels_last", "dilation_rate": [1, 1], "groups": 1, "activation": "linear", "use_bias": true, "kernel_initializer": {"module": "keras.initializers", "class_name": "GlorotUniform", "config": {"seed": null}, "registered_name": null}, "bias_initializer": {"module": "keras.initializers", "class_name": "Zeros", "config": {}, "registered_name": null}, "kernel_regularizer": null, "bias_regularizer": null, "activity_regularizer": null, "kernel_constraint": null, "bias_constraint": null}, "name": "expanded_conv_4_squeeze_excite_conv", "inbound_nodes": [{"args": [{"class_name": "__keras_tensor__", "config": {"shape": [null, 1, 1, 240], "dtype": "float32", "keras_history": ["expanded_conv_4_squeeze_excite_avg_pool", 0, 0]}}], "kwargs": {}}]}, {"class_name": "ReLU", "config": {"name": "expanded_conv_4_squeeze_excite_relu", "trainable": false, "dtype": {"module": "keras", "class_name": "DTypePolicy", "config": {"name": "float32"}, "registered_name": null}, "max_value": null, "negative_slope": 0.0, "threshold": 0.0}, "name": "expanded_conv_4_squeeze_excite_relu", "inbound_nodes": [{"args": [{"class_name": "__keras_tensor__", "config": {"shape": [null, 1, 1, 64], "dtype": "float32", "keras_history": ["expanded_conv_4_squeeze_excite_conv", 0, 0]}}], "kwargs": {}}]}, {"class_name": "Conv2D", "config": {"name": "expanded_conv_4_squeeze_excite_conv_1", "trainable": false, "dtype": {"module": "keras", "class_name": "DTypePolicy", "config": {"name": "float32"}, "registered_name": null}, "filters": 240, "kernel_size": [1, 1], "strides": [1, 1], "padding": "same", "data_format": "channels_last", "dilation_rate": [1, 1], "groups": 1, "activation": "linear", "use_bias": true, "kernel_initializer": {"module": "keras.initializers", "class_name": "GlorotUniform", "config": {"seed": null}, "registered_name": null}, "bias_initializer": {"module": "keras.initializers", "class_name": "Zeros", "config": {}, "registered_name": null}, "kernel_regularizer": null, "bias_regularizer": null, "activity_regularizer": null, "kernel_constraint": null, "bias_constraint": null}, "name": "expanded_conv_4_squeeze_excite_conv_1", "inbound_nodes": [{"args": [{"class_name": "__keras_tensor__", "config": {"shape": [null, 1, 1, 64], "dtype": "float32", "keras_history": ["expanded_conv_4_squeeze_excite_relu", 0, 0]}}], "kwargs": {}}]}, {"class_name": "Add", "config": {"name": "add_2"}, "name": "add_2", "inbound_nodes": [{"args": [{"class_name": "__keras_tensor__", "config": {"shape": [null, 1, 1, 240], "dtype": "float32", "keras_history": ["expanded_conv_4_squeeze_excite_conv_1", 0, 0]}}, 3.0], "kwargs": {}}]}, {"class_name": "ReLU", "config": {"name": "re_lu_7", "trainable": false, "dtype": {"module": "keras", "class_name": "DTypePolicy", "config": {"name": "float32"}, "registered_name": null}, "max_value": 6.0, "negative_slope": 0.0, "threshold": 0.0}, "name": "re_lu_7", "inbound_nodes": [{"args": [{"class_name": "__keras_tensor__", "config": {"shape": [null, 1, 1, 240], "dtype": "float32", "keras_history": ["add_2", 0, 0]}}], "kwargs": {}}]}, {"class_name": "Multiply", "config": {"name": "multiply_2"}, "name": "multiply_2", "inbound_nodes": [{"args": [{"class_name": "__keras_tensor__", "config": {"shape": [null, 1, 1, 240], "dtype": "float32", "keras_history": ["re_lu_7", 0, 0]}}, 0.16666666666666666], "kwargs": {}}]}, {"class_name": "Multiply", "config": {"name": "expanded_conv_4_squeeze_excite_mul", "trainable": false, "dtype": {"module": "keras", "class_name": "DTypePolicy", "config": {"name": "float32"}, "registered_name": null}}, "name": "expanded_conv_4_squeeze_excite_mul", "inbound_nodes": [{"args": [[{"class_name": "__keras_tensor__", "config": {"shape": [null, 14, 14, 240], "dtype": "float32", "keras_history": ["activation_4", 0, 0]}}, {"class_name": "__keras_tensor__", "config": {"shape": [null, 1, 1, 240], "dtype": "float32", "keras_history": ["multiply_2", 0, 0]}}]], "kwargs": {}}]}, {"class_name": "Conv2D", "config": {"name": "expanded_conv_4_project", "trainable": false, "dtype": {"module": "keras", "class_name": "DTypePolicy", "config": {"name": "float32"}, "registered_name": null}, "filters": 40, "kernel_size": [1, 1], "strides": [1, 1], "padding": "same", "data_format": "channels_last", "dilation_rate": [1, 1], "groups": 1, "activation": "linear", "use_bias": false, "kernel_initializer": {"module": "keras.initializers", "class_name": "GlorotUniform", "config": {"seed": null}, "registered_name": null}, "bias_initializer": {"module": "keras.initializers", "class_name": "Zeros", "config": {}, "registered_name": null}, "kernel_regularizer": null, "bias_regularizer": null, "activity_regularizer": null, "kernel_constraint": null, "bias_constraint": null}, "name": "expanded_conv_4_project", "inbound_nodes": [{"args": [{"class_name": "__keras_tensor__", "config": {"shape": [null, 14, 14, 240], "dtype": "float32", "keras_history": ["expanded_conv_4_squeeze_excite_mul", 0, 0]}}], "kwargs": {}}]}, {"class_name": "BatchNormalization", "config": {"name": "expanded_conv_4_project_bn", "trainable": false, "dtype": {"module": "keras", "class_name": "DTypePolicy", "config": {"name": "float32"}, "registered_name": null}, "axis": -1, "momentum": 0.999, "epsilon": 0.001, "center": true, "scale": true, "beta_initializer": {"module": "keras.initializers", "class_name": "Zeros", "config": {}, "registered_name": null}, "gamma_initializer": {"module": "keras.initializers", "class_name": "Ones", "config": {}, "registered_name": null}, "moving_mean_initializer": {"module": "keras.initializers", "class_name": "Zeros", "config": {}, "registered_name": null}, "moving_variance_initializer": {"module": "keras.initializers", "class_name": "Ones", "config": {}, "registered_name": null}, "beta_regularizer": null, "gamma_regularizer": null, "beta_constraint": null, "gamma_constraint": null, "synchronized": false}, "name": "expanded_conv_4_project_bn", "inbound_nodes": [{"args": [{"class_name": "__keras_tensor__", "config": {"shape": [null, 14, 14, 40], "dtype": "float32", "keras_history": ["expanded_conv_4_project", 0, 0]}}], "kwargs": {"mask": null}}]}, {"class_name": "Add", "config": {"name": "expanded_conv_4_add", "trainable": false, "dtype": {"module": "keras", "class_name": "DTypePolicy", "config": {"name": "float32"}, "registered_name": null}}, "name": "expanded_conv_4_add", "inbound_nodes": [{"args": [[{"class_name": "__keras_tensor__", "config": {"shape": [null, 14, 14, 40], "dtype": "float32", "keras_history": ["expanded_conv_3_project_bn", 0, 0]}}, {"class_name": "__keras_tensor__", "config": {"shape": [null, 14, 14, 40], "dtype": "float32", "keras_history": ["expanded_conv_4_project_bn", 0, 0]}}]], "kwargs": {}}]}, {"class_name": "Conv2D", "config": {"name": "expanded_conv_5_expand", "trainable": false, "dtype": {"module": "keras", "class_name": "DTypePolicy", "config": {"name": "float32"}, "registered_name": null}, "filters": 240, "kernel_size": [1, 1], "strides": [1, 1], "padding": "same", "data_format": "channels_last", "dilation_rate": [1, 1], "groups": 1, "activation": "linear", "use_bias": false, "kernel_initializer": {"module": "keras.initializers", "class_name": "GlorotUniform", "config": {"seed": null}, "registered_name": null}, "bias_initializer": {"module": "keras.initializers", "class_name": "Zeros", "config": {}, "registered_name": null}, "kernel_regularizer": null, "bias_regularizer": null, "activity_regularizer": null, "kernel_constraint": null, "bias_constraint": null}, "name": "expanded_conv_5_expand", "inbound_nodes": [{"args": [{"class_name": "__keras_tensor__", "config": {"shape": [null, 14, 14, 40], "dtype": "float32", "keras_history": ["expanded_conv_4_add", 0, 0]}}], "kwargs": {}}]}, {"class_name": "BatchNormalization", "config": {"name": "expanded_conv_5_expand_bn", "trainable": false, "dtype": {"module": "keras", "class_name": "DTypePolicy", "config": {"name": "float32"}, "registered_name": null}, "axis": -1, "momentum": 0.999, "epsilon": 0.001, "center": true, "scale": true, "beta_initializer": {"module": "keras.initializers", "class_name": "Zeros", "config": {}, "registered_name": null}, "gamma_initializer": {"module": "keras.initializers", "class_name": "Ones", "config": {}, "registered_name": null}, "moving_mean_initializer": {"module": "keras.initializers", "class_name": "Zeros", "config": {}, "registered_name": null}, "moving_variance_initializer": {"module": "keras.initializers", "class_name": "Ones", "config": {}, "registered_name": null}, "beta_regularizer": null, "gamma_regularizer": null, "beta_constraint": null, "gamma_constraint": null, "synchronized": false}, "name": "expanded_conv_5_expand_bn", "inbound_nodes": [{"args": [{"class_name": "__keras_tensor__", "config": {"shape": [null, 14, 14, 240], "dtype": "float32", "keras_history": ["expanded_conv_5_expand", 0, 0]}}], "kwargs": {"mask": null}}]}, {"class_name": "Activation", "config": {"name": "activation_5", "trainable": false, "dtype": {"module": "keras", "class_name": "DTypePolicy", "config": {"name": "float32"}, "registered_name": null}, "activation": "hard_silu"}, "name": "activation_5", "inbound_nodes": [{"args": [{"class_name": "__keras_tensor__", "config": {"shape": [null, 14, 14, 240], "dtype": "float32", "keras_history": ["expanded_conv_5_expand_bn", 0, 0]}}], "kwargs": {}}]}, {"class_name": "DepthwiseConv2D", "config": {"name": "expanded_conv_5_depthwise", "trainable": false, "dtype": {"module": "keras", "class_name": "DTypePolicy", "config": {"name": "float32"}, "registered_name": null}, "depth_multiplier": 1, "kernel_size": [5, 5], "strides": [1, 1], "padding": "same", "data_format": "channels_last", "dilation_rate": [1, 1], "activation": "linear", "use_bias": false, "depthwise_initializer": {"module": "keras.initializers", "class_name": "GlorotUniform", "config": {"seed": null}, "registered_name": null}, "bias_initializer": {"module": "keras.initializers", "class_name": "Zeros", "config": {}, "registered_name": null}, "depthwise_regularizer": null, "bias_regularizer": null, "activity_regularizer": null, "depthwise_constraint": null, "bias_constraint": null}, "name": "expanded_conv_5_depthwise", "inbound_nodes": [{"args": [{"class_name": "__keras_tensor__", "config": {"shape": [null, 14, 14, 240], "dtype": "float32", "keras_history": ["activation_5", 0, 0]}}], "kwargs": {}}]}, {"class_name": "BatchNormalization", "config": {"name": "expanded_conv_5_depthwise_bn", "trainable": false, "dtype": {"module": "keras", "class_name": "DTypePolicy", "config": {"name": "float32"}, "registered_name": null}, "axis": -1, "momentum": 0.999, "epsilon": 0.001, "center": true, "scale": true, "beta_initializer": {"module": "keras.initializers", "class_name": "Zeros", "config": {}, "registered_name": null}, "gamma_initializer": {"module": "keras.initializers", "class_name": "Ones", "config": {}, "registered_name": null}, "moving_mean_initializer": {"module": "keras.initializers", "class_name": "Zeros", "config": {}, "registered_name": null}, "moving_variance_initializer": {"module": "keras.initializers", "class_name": "Ones", "config": {}, "registered_name": null}, "beta_regularizer": null, "gamma_regularizer": null, "beta_constraint": null, "gamma_constraint": null, "synchronized": false}, "name": "expanded_conv_5_depthwise_bn", "inbound_nodes": [{"args": [{"class_name": "__keras_tensor__", "config": {"shape": [null, 14, 14, 240], "dtype": "float32", "keras_history": ["expanded_conv_5_depthwise", 0, 0]}}], "kwargs": {"mask": null}}]}, {"class_name": "Activation", "config": {"name": "activation_6", "trainable": false, "dtype": {"module": "keras", "class_name": "DTypePolicy", "config": {"name": "float32"}, "registered_name": null}, "activation": "hard_silu"}, "name": "activation_6", "inbound_nodes": [{"args": [{"class_name": "__keras_tensor__", "config": {"shape": [null, 14, 14, 240], "dtype": "float32", "keras_history": ["expanded_conv_5_depthwise_bn", 0, 0]}}], "kwargs": {}}]}, {"class_name": "GlobalAveragePooling2D", "config": {"name": "expanded_conv_5_squeeze_excite_avg_pool", "trainable": false, "dtype": {"module": "keras", "class_name": "DTypePolicy", "config": {"name": "float32"}, "registered_name": null}, "data_format": "channels_last", "keepdims": true}, "name": "expanded_conv_5_squeeze_excite_avg_pool", "inbound_nodes": [{"args": [{"class_name": "__keras_tensor__", "config": {"shape": [null, 14, 14, 240], "dtype": "float32", "keras_history": ["activation_6", 0, 0]}}], "kwargs": {}}]}, {"class_name": "Conv2D", "config": {"name": "expanded_conv_5_squeeze_excite_conv", "trainable": false, "dtype": {"module": "keras", "class_name": "DTypePolicy", "config": {"name": "float32"}, "registered_name": null}, "filters": 64, "kernel_size": [1, 1], "strides": [1, 1], "padding": "same", "data_format": "channels_last", "dilation_rate": [1, 1], "groups": 1, "activation": "linear", "use_bias": true, "kernel_initializer": {"module": "keras.initializers", "class_name": "GlorotUniform", "config": {"seed": null}, "registered_name": null}, "bias_initializer": {"module": "keras.initializers", "class_name": "Zeros", "config": {}, "registered_name": null}, "kernel_regularizer": null, "bias_regularizer": null, "activity_regularizer": null, "kernel_constraint": null, "bias_constraint": null}, "name": "expanded_conv_5_squeeze_excite_conv", "inbound_nodes": [{"args": [{"class_name": "__keras_tensor__", "config": {"shape": [null, 1, 1, 240], "dtype": "float32", "keras_history": ["expanded_conv_5_squeeze_excite_avg_pool", 0, 0]}}], "kwargs": {}}]}, {"class_name": "ReLU", "config": {"name": "expanded_conv_5_squeeze_excite_relu", "trainable": false, "dtype": {"module": "keras", "class_name": "DTypePolicy", "config": {"name": "float32"}, "registered_name": null}, "max_value": null, "negative_slope": 0.0, "threshold": 0.0}, "name": "expanded_conv_5_squeeze_excite_relu", "inbound_nodes": [{"args": [{"class_name": "__keras_tensor__", "config": {"shape": [null, 1, 1, 64], "dtype": "float32", "keras_history": ["expanded_conv_5_squeeze_excite_conv", 0, 0]}}], "kwargs": {}}]}, {"class_name": "Conv2D", "config": {"name": "expanded_conv_5_squeeze_excite_conv_1", "trainable": false, "dtype": {"module": "keras", "class_name": "DTypePolicy", "config": {"name": "float32"}, "registered_name": null}, "filters": 240, "kernel_size": [1, 1], "strides": [1, 1], "padding": "same", "data_format": "channels_last", "dilation_rate": [1, 1], "groups": 1, "activation": "linear", "use_bias": true, "kernel_initializer": {"module": "keras.initializers", "class_name": "GlorotUniform", "config": {"seed": null}, "registered_name": null}, "bias_initializer": {"module": "keras.initializers", "class_name": "Zeros", "config": {}, "registered_name": null}, "kernel_regularizer": null, "bias_regularizer": null, "activity_regularizer": null, "kernel_constraint": null, "bias_constraint": null}, "name": "expanded_conv_5_squeeze_excite_conv_1", "inbound_nodes": [{"args": [{"class_name": "__keras_tensor__", "config": {"shape": [null, 1, 1, 64], "dtype": "float32", "keras_history": ["expanded_conv_5_squeeze_excite_relu", 0, 0]}}], "kwargs": {}}]}, {"class_name": "Add", "config": {"name": "add_3"}, "name": "add_3", "inbound_nodes": [{"args": [{"class_name": "__keras_tensor__", "config": {"shape": [null, 1, 1, 240], "dtype": "float32", "keras_history": ["expanded_conv_5_squeeze_excite_conv_1", 0, 0]}}, 3.0], "kwargs": {}}]}, {"class_name": "ReLU", "config": {"name": "re_lu_8", "trainable": false, "dtype": {"module": "keras", "class_name": "DTypePolicy", "config": {"name": "float32"}, "registered_name": null}, "max_value": 6.0, "negative_slope": 0.0, "threshold": 0.0}, "name": "re_lu_8", "inbound_nodes": [{"args": [{"class_name": "__keras_tensor__", "config": {"shape": [null, 1, 1, 240], "dtype": "float32", "keras_history": ["add_3", 0, 0]}}], "kwargs": {}}]}, {"class_name": "Multiply", "config": {"name": "multiply_3"}, "name": "multiply_3", "inbound_nodes": [{"args": [{"class_name": "__keras_tensor__", "config": {"shape": [null, 1, 1, 240], "dtype": "float32", "keras_history": ["re_lu_8", 0, 0]}}, 0.16666666666666666], "kwargs": {}}]}, {"class_name": "Multiply", "config": {"name": "expanded_conv_5_squeeze_excite_mul", "trainable": false, "dtype": {"module": "keras", "class_name": "DTypePolicy", "config": {"name": "float32"}, "registered_name": null}}, "name": "expanded_conv_5_squeeze_excite_mul", "inbound_nodes": [{"args": [[{"class_name": "__keras_tensor__", "config": {"shape": [null, 14, 14, 240], "dtype": "float32", "keras_history": ["activation_6", 0, 0]}}, {"class_name": "__keras_tensor__", "config": {"shape": [null, 1, 1, 240], "dtype": "float32", "keras_history": ["multiply_3", 0, 0]}}]], "kwargs": {}}]}, {"class_name": "Conv2D", "config": {"name": "expanded_conv_5_project", "trainable": false, "dtype": {"module": "keras", "class_name": "DTypePolicy", "config": {"name": "float32"}, "registered_name": null}, "filters": 40, "kernel_size": [1, 1], "strides": [1, 1], "padding": "same", "data_format": "channels_last", "dilation_rate": [1, 1], "groups": 1, "activation": "linear", "use_bias": false, "kernel_initializer": {"module": "keras.initializers", "class_name": "GlorotUniform", "config": {"seed": null}, "registered_name": null}, "bias_initializer": {"module": "keras.initializers", "class_name": "Zeros", "config": {}, "registered_name": null}, "kernel_regularizer": null, "bias_regularizer": null, "activity_regularizer": null, "kernel_constraint": null, "bias_constraint": null}, "name": "expanded_conv_5_project", "inbound_nodes": [{"args": [{"class_name": "__keras_tensor__", "config": {"shape": [null, 14, 14, 240], "dtype": "float32", "keras_history": ["expanded_conv_5_squeeze_excite_mul", 0, 0]}}], "kwargs": {}}]}, {"class_name": "BatchNormalization", "config": {"name": "expanded_conv_5_project_bn", "trainable": false, "dtype": {"module": "keras", "class_name": "DTypePolicy", "config": {"name": "float32"}, "registered_name": null}, "axis": -1, "momentum": 0.999, "epsilon": 0.001, "center": true, "scale": true, "beta_initializer": {"module": "keras.initializers", "class_name": "Zeros", "config": {}, "registered_name": null}, "gamma_initializer": {"module": "keras.initializers", "class_name": "Ones", "config": {}, "registered_name": null}, "moving_mean_initializer": {"module": "keras.initializers", "class_name": "Zeros", "config": {}, "registered_name": null}, "moving_variance_initializer": {"module": "keras.initializers", "class_name": "Ones", "config": {}, "registered_name": null}, "beta_regularizer": null, "gamma_regularizer": null, "beta_constraint": null, "gamma_constraint": null, "synchronized": false}, "name": "expanded_conv_5_project_bn", "inbound_nodes": [{"args": [{"class_name": "__keras_tensor__", "config": {"shape": [null, 14, 14, 40], "dtype": "float32", "keras_history": ["expanded_conv_5_project", 0, 0]}}], "kwargs": {"mask": null}}]}, {"class_name": "Add", "config": {"name": "expanded_conv_5_add", "trainable": false, "dtype": {"module": "keras", "class_name": "DTypePolicy", "config": {"name": "float32"}, "registered_name": null}}, "name": "expanded_conv_5_add", "inbound_nodes": [{"args": [[{"class_name": "__keras_tensor__", "config": {"shape": [null, 14, 14, 40], "dtype": "float32", "keras_history": ["expanded_conv_4_add", 0, 0]}}, {"class_name": "__keras_tensor__", "config": {"shape": [null, 14, 14, 40], "dtype": "float32", "keras_history": ["expanded_conv_5_project_bn", 0, 0]}}]], "kwargs": {}}]}, {"class_name": "Conv2D", "config": {"name": "expanded_conv_6_expand", "trainable": false, "dtype": {"module": "keras", "class_name": "DTypePolicy", "config": {"name": "float32"}, "registered_name": null}, "filters": 120, "kernel_size": [1, 1], "strides": [1, 1], "padding": "same", "data_format": "channels_last", "dilation_rate": [1, 1], "groups": 1, "activation": "linear", "use_bias": false, "kernel_initializer": {"module": "keras.initializers", "class_name": "GlorotUniform", "config": {"seed": null}, "registered_name": null}, "bias_initializer": {"module": "keras.initializers", "class_name": "Zeros", "config": {}, "registered_name": null}, "kernel_regularizer": null, "bias_regularizer": null, "activity_regularizer": null, "kernel_constraint": null, "bias_constraint": null}, "name": "expanded_conv_6_expand", "inbound_nodes": [{"args": [{"class_name": "__keras_tensor__", "config": {"shape": [null, 14, 14, 40], "dtype": "float32", "keras_history": ["expanded_conv_5_add", 0, 0]}}], "kwargs": {}}]}, {"class_name": "BatchNormalization", "config": {"name": "expanded_conv_6_expand_bn", "trainable": false, "dtype": {"module": "keras", "class_name": "DTypePolicy", "config": {"name": "float32"}, "registered_name": null}, "axis": -1, "momentum": 0.999, "epsilon": 0.001, "center": true, "scale": true, "beta_initializer": {"module": "keras.initializers", "class_name": "Zeros", "config": {}, "registered_name": null}, "gamma_initializer": {"module": "keras.initializers", "class_name": "Ones", "config": {}, "registered_name": null}, "moving_mean_initializer": {"module": "keras.initializers", "class_name": "Zeros", "config": {}, "registered_name": null}, "moving_variance_initializer": {"module": "keras.initializers", "class_name": "Ones", "config": {}, "registered_name": null}, "beta_regularizer": null, "gamma_regularizer": null, "beta_constraint": null, "gamma_constraint": null, "synchronized": false}, "name": "expanded_conv_6_expand_bn", "inbound_nodes": [{"args": [{"class_name": "__keras_tensor__", "config": {"shape": [null, 14, 14, 120], "dtype": "float32", "keras_history": ["expanded_conv_6_expand", 0, 0]}}], "kwargs": {"mask": null}}]}, {"class_name": "Activation", "config": {"name": "activation_7", "trainable": false, "dtype": {"module": "keras", "class_name": "DTypePolicy", "config": {"name": "float32"}, "registered_name": null}, "activation": "hard_silu"}, "name": "activation_7", "inbound_nodes": [{"args": [{"class_name": "__keras_tensor__", "config": {"shape": [null, 14, 14, 120], "dtype": "float32", "keras_history": ["expanded_conv_6_expand_bn", 0, 0]}}], "kwargs": {}}]}, {"class_name": "DepthwiseConv2D", "config": {"name": "expanded_conv_6_depthwise", "trainable": false, "dtype": {"module": "keras", "class_name": "DTypePolicy", "config": {"name": "float32"}, "registered_name": null}, "depth_multiplier": 1, "kernel_size": [5, 5], "strides": [1, 1], "padding": "same", "data_format": "channels_last", "dilation_rate": [1, 1], "activation": "linear", "use_bias": false, "depthwise_initializer": {"module": "keras.initializers", "class_name": "GlorotUniform", "config": {"seed": null}, "registered_name": null}, "bias_initializer": {"module": "keras.initializers", "class_name": "Zeros", "config": {}, "registered_name": null}, "depthwise_regularizer": null, "bias_regularizer": null, "activity_regularizer": null, "depthwise_constraint": null, "bias_constraint": null}, "name": "expanded_conv_6_depthwise", "inbound_nodes": [{"args": [{"class_name": "__keras_tensor__", "config": {"shape": [null, 14, 14, 120], "dtype": "float32", "keras_history": ["activation_7", 0, 0]}}], "kwargs": {}}]}, {"class_name": "BatchNormalization", "config": {"name": "expanded_conv_6_depthwise_bn", "trainable": false, "dtype": {"module": "keras", "class_name": "DTypePolicy", "config": {"name": "float32"}, "registered_name": null}, "axis": -1, "momentum": 0.999, "epsilon": 0.001, "center": true, "scale": true, "beta_initializer": {"module": "keras.initializers", "class_name": "Zeros", "config": {}, "registered_name": null}, "gamma_initializer": {"module": "keras.initializers", "class_name": "Ones", "config": {}, "registered_name": null}, "moving_mean_initializer": {"module": "keras.initializers", "class_name": "Zeros", "config": {}, "registered_name": null}, "moving_variance_initializer": {"module": "keras.initializers", "class_name": "Ones", "config": {}, "registered_name": null}, "beta_regularizer": null, "gamma_regularizer": null, "beta_constraint": null, "gamma_constraint": null, "synchronized": false}, "name": "expanded_conv_6_depthwise_bn", "inbound_nodes": [{"args": [{"class_name": "__keras_tensor__", "config": {"shape": [null, 14, 14, 120], "dtype": "float32", "keras_history": ["expanded_conv_6_depthwise", 0, 0]}}], "kwargs": {"mask": null}}]}, {"class_name": "Activation", "config": {"name": "activation_8", "trainable": false, "dtype": {"module": "keras", "class_name": "DTypePolicy", "config": {"name": "float32"}, "registered_name": null}, "activation": "hard_silu"}, "name": "activation_8", "inbound_nodes": [{"args": [{"class_name": "__keras_tensor__", "config": {"shape": [null, 14, 14, 120], "dtype": "float32", "keras_history": ["expanded_conv_6_depthwise_bn", 0, 0]}}], "kwargs": {}}]}, {"class_name": "GlobalAveragePooling2D", "config": {"name": "expanded_conv_6_squeeze_excite_avg_pool", "trainable": false, "dtype": {"module": "keras", "class_name": "DTypePolicy", "config": {"name": "float32"}, "registered_name": null}, "data_format": "channels_last", "keepdims": true}, "name": "expanded_conv_6_squeeze_excite_avg_pool", "inbound_nodes": [{"args": [{"class_name": "__keras_tensor__", "config": {"shape": [null, 14, 14, 120], "dtype": "float32", "keras_history": ["activation_8", 0, 0]}}], "kwargs": {}}]}, {"class_name": "Conv2D", "config": {"name": "expanded_conv_6_squeeze_excite_conv", "trainable": false, "dtype": {"module": "keras", "class_name": "DTypePolicy", "config": {"name": "float32"}, "registered_name": null}, "filters": 32, "kernel_size": [1, 1], "strides": [1, 1], "padding": "same", "data_format": "channels_last", "dilation_rate": [1, 1], "groups": 1, "activation": "linear", "use_bias": true, "kernel_initializer": {"module": "keras.initializers", "class_name": "GlorotUniform", "config": {"seed": null}, "registered_name": null}, "bias_initializer": {"module": "keras.initializers", "class_name": "Zeros", "config": {}, "registered_name": null}, "kernel_regularizer": null, "bias_regularizer": null, "activity_regularizer": null, "kernel_constraint": null, "bias_constraint": null}, "name": "expanded_conv_6_squeeze_excite_conv", "inbound_nodes": [{"args": [{"class_name": "__keras_tensor__", "config": {"shape": [null, 1, 1, 120], "dtype": "float32", "keras_history": ["expanded_conv_6_squeeze_excite_avg_pool", 0, 0]}}], "kwargs": {}}]}, {"class_name": "ReLU", "config": {"name": "expanded_conv_6_squeeze_excite_relu", "trainable": false, "dtype": {"module": "keras", "class_name": "DTypePolicy", "config": {"name": "float32"}, "registered_name": null}, "max_value": null, "negative_slope": 0.0, "threshold": 0.0}, "name": "expanded_conv_6_squeeze_excite_relu", "inbound_nodes": [{"args": [{"class_name": "__keras_tensor__", "config": {"shape": [null, 1, 1, 32], "dtype": "float32", "keras_history": ["expanded_conv_6_squeeze_excite_conv", 0, 0]}}], "kwargs": {}}]}, {"class_name": "Conv2D", "config": {"name": "expanded_conv_6_squeeze_excite_conv_1", "trainable": false, "dtype": {"module": "keras", "class_name": "DTypePolicy", "config": {"name": "float32"}, "registered_name": null}, "filters": 120, "kernel_size": [1, 1], "strides": [1, 1], "padding": "same", "data_format": "channels_last", "dilation_rate": [1, 1], "groups": 1, "activation": "linear", "use_bias": true, "kernel_initializer": {"module": "keras.initializers", "class_name": "GlorotUniform", "config": {"seed": null}, "registered_name": null}, "bias_initializer": {"module": "keras.initializers", "class_name": "Zeros", "config": {}, "registered_name": null}, "kernel_regularizer": null, "bias_regularizer": null, "activity_regularizer": null, "kernel_constraint": null, "bias_constraint": null}, "name": "expanded_conv_6_squeeze_excite_conv_1", "inbound_nodes": [{"args": [{"class_name": "__keras_tensor__", "config": {"shape": [null, 1, 1, 32], "dtype": "float32", "keras_history": ["expanded_conv_6_squeeze_excite_relu", 0, 0]}}], "kwargs": {}}]}, {"class_name": "Add", "config": {"name": "add_4"}, "name": "add_4", "inbound_nodes": [{"args": [{"class_name": "__keras_tensor__", "config": {"shape": [null, 1, 1, 120], "dtype": "float32", "keras_history": ["expanded_conv_6_squeeze_excite_conv_1", 0, 0]}}, 3.0], "kwargs": {}}]}, {"class_name": "ReLU", "config": {"name": "re_lu_9", "trainable": false, "dtype": {"module": "keras", "class_name": "DTypePolicy", "config": {"name": "float32"}, "registered_name": null}, "max_value": 6.0, "negative_slope": 0.0, "threshold": 0.0}, "name": "re_lu_9", "inbound_nodes": [{"args": [{"class_name": "__keras_tensor__", "config": {"shape": [null, 1, 1, 120], "dtype": "float32", "keras_history": ["add_4", 0, 0]}}], "kwargs": {}}]}, {"class_name": "Multiply", "config": {"name": "multiply_4"}, "name": "multiply_4", "inbound_nodes": [{"args": [{"class_name": "__keras_tensor__", "config": {"shape": [null, 1, 1, 120], "dtype": "float32", "keras_history": ["re_lu_9", 0, 0]}}, 0.16666666666666666], "kwargs": {}}]}, {"class_name": "Multiply", "config": {"name": "expanded_conv_6_squeeze_excite_mul", "trainable": false, "dtype": {"module": "keras", "class_name": "DTypePolicy", "config": {"name": "float32"}, "registered_name": null}}, "name": "expanded_conv_6_squeeze_excite_mul", "inbound_nodes": [{"args": [[{"class_name": "__keras_tensor__", "config": {"shape": [null, 14, 14, 120], "dtype": "float32", "keras_history": ["activation_8", 0, 0]}}, {"class_name": "__keras_tensor__", "config": {"shape": [null, 1, 1, 120], "dtype": "float32", "keras_history": ["multiply_4", 0, 0]}}]], "kwargs": {}}]}, {"class_name": "Conv2D", "config": {"name": "expanded_conv_6_project", "trainable": false, "dtype": {"module": "keras", "class_name": "DTypePolicy", "config": {"name": "float32"}, "registered_name": null}, "filters": 48, "kernel_size": [1, 1], "strides": [1, 1], "padding": "same", "data_format": "channels_last", "dilation_rate": [1, 1], "groups": 1, "activation": "linear", "use_bias": false, "kernel_initializer": {"module": "keras.initializers", "class_name": "GlorotUniform", "config": {"seed": null}, "registered_name": null}, "bias_initializer": {"module": "keras.initializers", "class_name": "Zeros", "config": {}, "registered_name": null}, "kernel_regularizer": null, "bias_regularizer": null, "activity_regularizer": null, "kernel_constraint": null, "bias_constraint": null}, "name": "expanded_conv_6_project", "inbound_nodes": [{"args": [{"class_name": "__keras_tensor__", "config": {"shape": [null, 14, 14, 120], "dtype": "float32", "keras_history": ["expanded_conv_6_squeeze_excite_mul", 0, 0]}}], "kwargs": {}}]}, {"class_name": "BatchNormalization", "config": {"name": "expanded_conv_6_project_bn", "trainable": false, "dtype": {"module": "keras", "class_name": "DTypePolicy", "config": {"name": "float32"}, "registered_name": null}, "axis": -1, "momentum": 0.999, "epsilon": 0.001, "center": true, "scale": true, "beta_initializer": {"module": "keras.initializers", "class_name": "Zeros", "config": {}, "registered_name": null}, "gamma_initializer": {"module": "keras.initializers", "class_name": "Ones", "config": {}, "registered_name": null}, "moving_mean_initializer": {"module": "keras.initializers", "class_name": "Zeros", "config": {}, "registered_name": null}, "moving_variance_initializer": {"module": "keras.initializers", "class_name": "Ones", "config": {}, "registered_name": null}, "beta_regularizer": null, "gamma_regularizer": null, "beta_constraint": null, "gamma_constraint": null, "synchronized": false}, "name": "expanded_conv_6_project_bn", "inbound_nodes": [{"args": [{"class_name": "__keras_tensor__", "config": {"shape": [null, 14, 14, 48], "dtype": "float32", "keras_history": ["expanded_conv_6_project", 0, 0]}}], "kwargs": {"mask": null}}]}, {"class_name": "Conv2D", "config": {"name": "expanded_conv_7_expand", "trainable": false, "dtype": {"module": "keras", "class_name": "DTypePolicy", "config": {"name": "float32"}, "registered_name": null}, "filters": 144, "kernel_size": [1, 1], "strides": [1, 1], "padding": "same", "data_format": "channels_last", "dilation_rate": [1, 1], "groups": 1, "activation": "linear", "use_bias": false, "kernel_initializer": {"module": "keras.initializers", "class_name": "GlorotUniform", "config": {"seed": null}, "registered_name": null}, "bias_initializer": {"module": "keras.initializers", "class_name": "Zeros", "config": {}, "registered_name": null}, "kernel_regularizer": null, "bias_regularizer": null, "activity_regularizer": null, "kernel_constraint": null, "bias_constraint": null}, "name": "expanded_conv_7_expand", "inbound_nodes": [{"args": [{"class_name": "__keras_tensor__", "config": {"shape": [null, 14, 14, 48], "dtype": "float32", "keras_history": ["expanded_conv_6_project_bn", 0, 0]}}], "kwargs": {}}]}, {"class_name": "BatchNormalization", "config": {"name": "expanded_conv_7_expand_bn", "trainable": false, "dtype": {"module": "keras", "class_name": "DTypePolicy", "config": {"name": "float32"}, "registered_name": null}, "axis": -1, "momentum": 0.999, "epsilon": 0.001, "center": true, "scale": true, "beta_initializer": {"module": "keras.initializers", "class_name": "Zeros", "config": {}, "registered_name": null}, "gamma_initializer": {"module": "keras.initializers", "class_name": "Ones", "config": {}, "registered_name": null}, "moving_mean_initializer": {"module": "keras.initializers", "class_name": "Zeros", "config": {}, "registered_name": null}, "moving_variance_initializer": {"module": "keras.initializers", "class_name": "Ones", "config": {}, "registered_name": null}, "beta_regularizer": null, "gamma_regularizer": null, "beta_constraint": null, "gamma_constraint": null, "synchronized": false}, "name": "expanded_conv_7_expand_bn", "inbound_nodes": [{"args": [{"class_name": "__keras_tensor__", "config": {"shape": [null, 14, 14, 144], "dtype": "float32", "keras_history": ["expanded_conv_7_expand", 0, 0]}}], "kwargs": {"mask": null}}]}, {"class_name": "Activation", "config": {"name": "activation_9", "trainable": false, "dtype": {"module": "keras", "class_name": "DTypePolicy", "config": {"name": "float32"}, "registered_name": null}, "activation": "hard_silu"}, "name": "activation_9", "inbound_nodes": [{"args": [{"class_name": "__keras_tensor__", "config": {"shape": [null, 14, 14, 144], "dtype": "float32", "keras_history": ["expanded_conv_7_expand_bn", 0, 0]}}], "kwargs": {}}]}, {"class_name": "DepthwiseConv2D", "config": {"name": "expanded_conv_7_depthwise", "trainable": false, "dtype": {"module": "keras", "class_name": "DTypePolicy", "config": {"name": "float32"}, "registered_name": null}, "depth_multiplier": 1, "kernel_size": [5, 5], "strides": [1, 1], "padding": "same", "data_format": "channels_last", "dilation_rate": [1, 1], "activation": "linear", "use_bias": false, "depthwise_initializer": {"module": "keras.initializers", "class_name": "GlorotUniform", "config": {"seed": null}, "registered_name": null}, "bias_initializer": {"module": "keras.initializers", "class_name": "Zeros", "config": {}, "registered_name": null}, "depthwise_regularizer": null, "bias_regularizer": null, "activity_regularizer": null, "depthwise_constraint": null, "bias_constraint": null}, "name": "expanded_conv_7_depthwise", "inbound_nodes": [{"args": [{"class_name": "__keras_tensor__", "config": {"shape": [null, 14, 14, 144], "dtype": "float32", "keras_history": ["activation_9", 0, 0]}}], "kwargs": {}}]}, {"class_name": "BatchNormalization", "config": {"name": "expanded_conv_7_depthwise_bn", "trainable": false, "dtype": {"module": "keras", "class_name": "DTypePolicy", "config": {"name": "float32"}, "registered_name": null}, "axis": -1, "momentum": 0.999, "epsilon": 0.001, "center": true, "scale": true, "beta_initializer": {"module": "keras.initializers", "class_name": "Zeros", "config": {}, "registered_name": null}, "gamma_initializer": {"module": "keras.initializers", "class_name": "Ones", "config": {}, "registered_name": null}, "moving_mean_initializer": {"module": "keras.initializers", "class_name": "Zeros", "config": {}, "registered_name": null}, "moving_variance_initializer": {"module": "keras.initializers", "class_name": "Ones", "config": {}, "registered_name": null}, "beta_regularizer": null, "gamma_regularizer": null, "beta_constraint": null, "gamma_constraint": null, "synchronized": false}, "name": "expanded_conv_7_depthwise_bn", "inbound_nodes": [{"args": [{"class_name": "__keras_tensor__", "config": {"shape": [null, 14, 14, 144], "dtype": "float32", "keras_history": ["expanded_conv_7_depthwise", 0, 0]}}], "kwargs": {"mask": null}}]}, {"class_name": "Activation", "config": {"name": "activation_10", "trainable": false, "dtype": {"module": "keras", "class_name": "DTypePolicy", "config": {"name": "float32"}, "registered_name": null}, "activation": "hard_silu"}, "name": "activation_10", "inbound_nodes": [{"args": [{"class_name": "__keras_tensor__", "config": {"shape": [null, 14, 14, 144], "dtype": "float32", "keras_history": ["expanded_conv_7_depthwise_bn", 0, 0]}}], "kwargs": {}}]}, {"class_name": "GlobalAveragePooling2D", "config": {"name": "expanded_conv_7_squeeze_excite_avg_pool", "trainable": false, "dtype": {"module": "keras", "class_name": "DTypePolicy", "config": {"name": "float32"}, "registered_name": null}, "data_format": "channels_last", "keepdims": true}, "name": "expanded_conv_7_squeeze_excite_avg_pool", "inbound_nodes": [{"args": [{"class_name": "__keras_tensor__", "config": {"shape": [null, 14, 14, 144], "dtype": "float32", "keras_history": ["activation_10", 0, 0]}}], "kwargs": {}}]}, {"class_name": "Conv2D", "config": {"name": "expanded_conv_7_squeeze_excite_conv", "trainable": false, "dtype": {"module": "keras", "class_name": "DTypePolicy", "config": {"name": "float32"}, "registered_name": null}, "filters": 40, "kernel_size": [1, 1], "strides": [1, 1], "padding": "same", "data_format": "channels_last", "dilation_rate": [1, 1], "groups": 1, "activation": "linear", "use_bias": true, "kernel_initializer": {"module": "keras.initializers", "class_name": "GlorotUniform", "config": {"seed": null}, "registered_name": null}, "bias_initializer": {"module": "keras.initializers", "class_name": "Zeros", "config": {}, "registered_name": null}, "kernel_regularizer": null, "bias_regularizer": null, "activity_regularizer": null, "kernel_constraint": null, "bias_constraint": null}, "name": "expanded_conv_7_squeeze_excite_conv", "inbound_nodes": [{"args": [{"class_name": "__keras_tensor__", "config": {"shape": [null, 1, 1, 144], "dtype": "float32", "keras_history": ["expanded_conv_7_squeeze_excite_avg_pool", 0, 0]}}], "kwargs": {}}]}, {"class_name": "ReLU", "config": {"name": "expanded_conv_7_squeeze_excite_relu", "trainable": false, "dtype": {"module": "keras", "class_name": "DTypePolicy", "config": {"name": "float32"}, "registered_name": null}, "max_value": null, "negative_slope": 0.0, "threshold": 0.0}, "name": "expanded_conv_7_squeeze_excite_relu", "inbound_nodes": [{"args": [{"class_name": "__keras_tensor__", "config": {"shape": [null, 1, 1, 40], "dtype": "float32", "keras_history": ["expanded_conv_7_squeeze_excite_conv", 0, 0]}}], "kwargs": {}}]}, {"class_name": "Conv2D", "config": {"name": "expanded_conv_7_squeeze_excite_conv_1", "trainable": false, "dtype": {"module": "keras", "class_name": "DTypePolicy", "config": {"name": "float32"}, "registered_name": null}, "filters": 144, "kernel_size": [1, 1], "strides": [1, 1], "padding": "same", "data_format": "channels_last", "dilation_rate": [1, 1], "groups": 1, "activation": "linear", "use_bias": true, "kernel_initializer": {"module": "keras.initializers", "class_name": "GlorotUniform", "config": {"seed": null}, "registered_name": null}, "bias_initializer": {"module": "keras.initializers", "class_name": "Zeros", "config": {}, "registered_name": null}, "kernel_regularizer": null, "bias_regularizer": null, "activity_regularizer": null, "kernel_constraint": null, "bias_constraint": null}, "name": "expanded_conv_7_squeeze_excite_conv_1", "inbound_nodes": [{"args": [{"class_name": "__keras_tensor__", "config": {"shape": [null, 1, 1, 40], "dtype": "float32", "keras_history": ["expanded_conv_7_squeeze_excite_relu", 0, 0]}}], "kwargs": {}}]}, {"class_name": "Add", "config": {"name": "add_5"}, "name": "add_5", "inbound_nodes": [{"args": [{"class_name": "__keras_tensor__", "config": {"shape": [null, 1, 1, 144], "dtype": "float32", "keras_history": ["expanded_conv_7_squeeze_excite_conv_1", 0, 0]}}, 3.0], "kwargs": {}}]}, {"class_name": "ReLU", "config": {"name": "re_lu_10", "trainable": false, "dtype": {"module": "keras", "class_name": "DTypePolicy", "config": {"name": "float32"}, "registered_name": null}, "max_value": 6.0, "negative_slope": 0.0, "threshold": 0.0}, "name": "re_lu_10", "inbound_nodes": [{"args": [{"class_name": "__keras_tensor__", "config": {"shape": [null, 1, 1, 144], "dtype": "float32", "keras_history": ["add_5", 0, 0]}}], "kwargs": {}}]}, {"class_name": "Multiply", "config": {"name": "multiply_5"}, "name": "multiply_5", "inbound_nodes": [{"args": [{"class_name": "__keras_tensor__", "config": {"shape": [null, 1, 1, 144], "dtype": "float32", "keras_history": ["re_lu_10", 0, 0]}}, 0.16666666666666666], "kwargs": {}}]}, {"class_name": "Multiply", "config": {"name": "expanded_conv_7_squeeze_excite_mul", "trainable": false, "dtype": {"module": "keras", "class_name": "DTypePolicy", "config": {"name": "float32"}, "registered_name": null}}, "name": "expanded_conv_7_squeeze_excite_mul", "inbound_nodes": [{"args": [[{"class_name": "__keras_tensor__", "config": {"shape": [null, 14, 14, 144], "dtype": "float32", "keras_history": ["activation_10", 0, 0]}}, {"class_name": "__keras_tensor__", "config": {"shape": [null, 1, 1, 144], "dtype": "float32", "keras_history": ["multiply_5", 0, 0]}}]], "kwargs": {}}]}, {"class_name": "Conv2D", "config": {"name": "expanded_conv_7_project", "trainable": false, "dtype": {"module": "keras", "class_name": "DTypePolicy", "config": {"name": "float32"}, "registered_name": null}, "filters": 48, "kernel_size": [1, 1], "strides": [1, 1], "padding": "same", "data_format": "channels_last", "dilation_rate": [1, 1], "groups": 1, "activation": "linear", "use_bias": false, "kernel_initializer": {"module": "keras.initializers", "class_name": "GlorotUniform", "config": {"seed": null}, "registered_name": null}, "bias_initializer": {"module": "keras.initializers", "class_name": "Zeros", "config": {}, "registered_name": null}, "kernel_regularizer": null, "bias_regularizer": null, "activity_regularizer": null, "kernel_constraint": null, "bias_constraint": null}, "name": "expanded_conv_7_project", "inbound_nodes": [{"args": [{"class_name": "__keras_tensor__", "config": {"shape": [null, 14, 14, 144], "dtype": "float32", "keras_history": ["expanded_conv_7_squeeze_excite_mul", 0, 0]}}], "kwargs": {}}]}, {"class_name": "BatchNormalization", "config": {"name": "expanded_conv_7_project_bn", "trainable": false, "dtype": {"module": "keras", "class_name": "DTypePolicy", "config": {"name": "float32"}, "registered_name": null}, "axis": -1, "momentum": 0.999, "epsilon": 0.001, "center": true, "scale": true, "beta_initializer": {"module": "keras.initializers", "class_name": "Zeros", "config": {}, "registered_name": null}, "gamma_initializer": {"module": "keras.initializers", "class_name": "Ones", "config": {}, "registered_name": null}, "moving_mean_initializer": {"module": "keras.initializers", "class_name": "Zeros", "config": {}, "registered_name": null}, "moving_variance_initializer": {"module": "keras.initializers", "class_name": "Ones", "config": {}, "registered_name": null}, "beta_regularizer": null, "gamma_regularizer": null, "beta_constraint": null, "gamma_constraint": null, "synchronized": false}, "name": "expanded_conv_7_project_bn", "inbound_nodes": [{"args": [{"class_name": "__keras_tensor__", "config": {"shape": [null, 14, 14, 48], "dtype": "float32", "keras_history": ["expanded_conv_7_project", 0, 0]}}], "kwargs": {"mask": null}}]}, {"class_name": "Add", "config": {"name": "expanded_conv_7_add", "trainable": false, "dtype": {"module": "keras", "class_name": "DTypePolicy", "config": {"name": "float32"}, "registered_name": null}}, "name": "expanded_conv_7_add", "inbound_nodes": [{"args": [[{"class_name": "__keras_tensor__", "config": {"shape": [null, 14, 14, 48], "dtype": "float32", "keras_history": ["expanded_conv_6_project_bn", 0, 0]}}, {"class_name": "__keras_tensor__", "config": {"shape": [null, 14, 14, 48], "dtype": "float32", "keras_history": ["expanded_conv_7_project_bn", 0, 0]}}]], "kwargs": {}}]}, {"class_name": "Conv2D", "config": {"name": "expanded_conv_8_expand", "trainable": false, "dtype": {"module": "keras", "class_name": "DTypePolicy", "config": {"name": "float32"}, "registered_name": null}, "filters": 288, "kernel_size": [1, 1], "strides": [1, 1], "padding": "same", "data_format": "channels_last", "dilation_rate": [1, 1], "groups": 1, "activation": "linear", "use_bias": false, "kernel_initializer": {"module": "keras.initializers", "class_name": "GlorotUniform", "config": {"seed": null}, "registered_name": null}, "bias_initializer": {"module": "keras.initializers", "class_name": "Zeros", "config": {}, "registered_name": null}, "kernel_regularizer": null, "bias_regularizer": null, "activity_regularizer": null, "kernel_constraint": null, "bias_constraint": null}, "name": "expanded_conv_8_expand", "inbound_nodes": [{"args": [{"class_name": "__keras_tensor__", "config": {"shape": [null, 14, 14, 48], "dtype": "float32", "keras_history": ["expanded_conv_7_add", 0, 0]}}], "kwargs": {}}]}, {"class_name": "BatchNormalization", "config": {"name": "expanded_conv_8_expand_bn", "trainable": false, "dtype": {"module": "keras", "class_name": "DTypePolicy", "config": {"name": "float32"}, "registered_name": null}, "axis": -1, "momentum": 0.999, "epsilon": 0.001, "center": true, "scale": true, "beta_initializer": {"module": "keras.initializers", "class_name": "Zeros", "config": {}, "registered_name": null}, "gamma_initializer": {"module": "keras.initializers", "class_name": "Ones", "config": {}, "registered_name": null}, "moving_mean_initializer": {"module": "keras.initializers", "class_name": "Zeros", "config": {}, "registered_name": null}, "moving_variance_initializer": {"module": "keras.initializers", "class_name": "Ones", "config": {}, "registered_name": null}, "beta_regularizer": null, "gamma_regularizer": null, "beta_constraint": null, "gamma_constraint": null, "synchronized": false}, "name": "expanded_conv_8_expand_bn", "inbound_nodes": [{"args": [{"class_name": "__keras_tensor__", "config": {"shape": [null, 14, 14, 288], "dtype": "float32", "keras_history": ["expanded_conv_8_expand", 0, 0]}}], "kwargs": {"mask": null}}]}, {"class_name": "Activation", "config": {"name": "activation_11", "trainable": false, "dtype": {"module": "keras", "class_name": "DTypePolicy", "config": {"name": "float32"}, "registered_name": null}, "activation": "hard_silu"}, "name": "activation_11", "inbound_nodes": [{"args": [{"class_name": "__keras_tensor__", "config": {"shape": [null, 14, 14, 288], "dtype": "float32", "keras_history": ["expanded_conv_8_expand_bn", 0, 0]}}], "kwargs": {}}]}, {"class_name": "ZeroPadding2D", "config": {"name": "expanded_conv_8_depthwise_pad", "trainable": false, "dtype": {"module": "keras", "class_name": "DTypePolicy", "config": {"name": "float32"}, "registered_name": null}, "padding": [[1, 2], [1, 2]], "data_format": "channels_last"}, "name": "expanded_conv_8_depthwise_pad", "inbound_nodes": [{"args": [{"class_name": "__keras_tensor__", "config": {"shape": [null, 14, 14, 288], "dtype": "float32", "keras_history": ["activation_11", 0, 0]}}], "kwargs": {}}]}, {"class_name": "DepthwiseConv2D", "config": {"name": "expanded_conv_8_depthwise", "trainable": false, "dtype": {"module": "keras", "class_name": "DTypePolicy", "config": {"name": "float32"}, "registered_name": null}, "depth_multiplier": 1, "kernel_size": [5, 5], "strides": [2, 2], "padding": "valid", "data_format": "channels_last", "dilation_rate": [1, 1], "activation": "linear", "use_bias": false, "depthwise_initializer": {"module": "keras.initializers", "class_name": "GlorotUniform", "config": {"seed": null}, "registered_name": null}, "bias_initializer": {"module": "keras.initializers", "class_name": "Zeros", "config": {}, "registered_name": null}, "depthwise_regularizer": null, "bias_regularizer": null, "activity_regularizer": null, "depthwise_constraint": null, "bias_constraint": null}, "name": "expanded_conv_8_depthwise", "inbound_nodes": [{"args": [{"class_name": "__keras_tensor__", "config": {"shape": [null, 17, 17, 288], "dtype": "float32", "keras_history": ["expanded_conv_8_depthwise_pad", 0, 0]}}], "kwargs": {}}]}, {"class_name": "BatchNormalization", "config": {"name": "expanded_conv_8_depthwise_bn", "trainable": false, "dtype": {"module": "keras", "class_name": "DTypePolicy", "config": {"name": "float32"}, "registered_name": null}, "axis": -1, "momentum": 0.999, "epsilon": 0.001, "center": true, "scale": true, "beta_initializer": {"module": "keras.initializers", "class_name": "Zeros", "config": {}, "registered_name": null}, "gamma_initializer": {"module": "keras.initializers", "class_name": "Ones", "config": {}, "registered_name": null}, "moving_mean_initializer": {"module": "keras.initializers", "class_name": "Zeros", "config": {}, "registered_name": null}, "moving_variance_initializer": {"module": "keras.initializers", "class_name": "Ones", "config": {}, "registered_name": null}, "beta_regularizer": null, "gamma_regularizer": null, "beta_constraint": null, "gamma_constraint": null, "synchronized": false}, "name": "expanded_conv_8_depthwise_bn", "inbound_nodes": [{"args": [{"class_name": "__keras_tensor__", "config": {"shape": [null, 7, 7, 288], "dtype": "float32", "keras_history": ["expanded_conv_8_depthwise", 0, 0]}}], "kwargs": {"mask": null}}]}, {"class_name": "Activation", "config": {"name": "activation_12", "trainable": false, "dtype": {"module": "keras", "class_name": "DTypePolicy", "config": {"name": "float32"}, "registered_name": null}, "activation": "hard_silu"}, "name": "activation_12", "inbound_nodes": [{"args": [{"class_name": "__keras_tensor__", "config": {"shape": [null, 7, 7, 288], "dtype": "float32", "keras_history": ["expanded_conv_8_depthwise_bn", 0, 0]}}], "kwargs": {}}]}, {"class_name": "GlobalAveragePooling2D", "config": {"name": "expanded_conv_8_squeeze_excite_avg_pool", "trainable": false, "dtype": {"module": "keras", "class_name": "DTypePolicy", "config": {"name": "float32"}, "registered_name": null}, "data_format": "channels_last", "keepdims": true}, "name": "expanded_conv_8_squeeze_excite_avg_pool", "inbound_nodes": [{"args": [{"class_name": "__keras_tensor__", "config": {"shape": [null, 7, 7, 288], "dtype": "float32", "keras_history": ["activation_12", 0, 0]}}], "kwargs": {}}]}, {"class_name": "Conv2D", "config": {"name": "expanded_conv_8_squeeze_excite_conv", "trainable": false, "dtype": {"module": "keras", "class_name": "DTypePolicy", "config": {"name": "float32"}, "registered_name": null}, "filters": 72, "kernel_size": [1, 1], "strides": [1, 1], "padding": "same", "data_format": "channels_last", "dilation_rate": [1, 1], "groups": 1, "activation": "linear", "use_bias": true, "kernel_initializer": {"module": "keras.initializers", "class_name": "GlorotUniform", "config": {"seed": null}, "registered_name": null}, "bias_initializer": {"module": "keras.initializers", "class_name": "Zeros", "config": {}, "registered_name": null}, "kernel_regularizer": null, "bias_regularizer": null, "activity_regularizer": null, "kernel_constraint": null, "bias_constraint": null}, "name": "expanded_conv_8_squeeze_excite_conv", "inbound_nodes": [{"args": [{"class_name": "__keras_tensor__", "config": {"shape": [null, 1, 1, 288], "dtype": "float32", "keras_history": ["expanded_conv_8_squeeze_excite_avg_pool", 0, 0]}}], "kwargs": {}}]}, {"class_name": "ReLU", "config": {"name": "expanded_conv_8_squeeze_excite_relu", "trainable": false, "dtype": {"module": "keras", "class_name": "DTypePolicy", "config": {"name": "float32"}, "registered_name": null}, "max_value": null, "negative_slope": 0.0, "threshold": 0.0}, "name": "expanded_conv_8_squeeze_excite_relu", "inbound_nodes": [{"args": [{"class_name": "__keras_tensor__", "config": {"shape": [null, 1, 1, 72], "dtype": "float32", "keras_history": ["expanded_conv_8_squeeze_excite_conv", 0, 0]}}], "kwargs": {}}]}, {"class_name": "Conv2D", "config": {"name": "expanded_conv_8_squeeze_excite_conv_1", "trainable": false, "dtype": {"module": "keras", "class_name": "DTypePolicy", "config": {"name": "float32"}, "registered_name": null}, "filters": 288, "kernel_size": [1, 1], "strides": [1, 1], "padding": "same", "data_format": "channels_last", "dilation_rate": [1, 1], "groups": 1, "activation": "linear", "use_bias": true, "kernel_initializer": {"module": "keras.initializers", "class_name": "GlorotUniform", "config": {"seed": null}, "registered_name": null}, "bias_initializer": {"module": "keras.initializers", "class_name": "Zeros", "config": {}, "registered_name": null}, "kernel_regularizer": null, "bias_regularizer": null, "activity_regularizer": null, "kernel_constraint": null, "bias_constraint": null}, "name": "expanded_conv_8_squeeze_excite_conv_1", "inbound_nodes": [{"args": [{"class_name": "__keras_tensor__", "config": {"shape": [null, 1, 1, 72], "dtype": "float32", "keras_history": ["expanded_conv_8_squeeze_excite_relu", 0, 0]}}], "kwargs": {}}]}, {"class_name": "Add", "config": {"name": "add_6"}, "name": "add_6", "inbound_nodes": [{"args": [{"class_name": "__keras_tensor__", "config": {"shape": [null, 1, 1, 288], "dtype": "float32", "keras_history": ["expanded_conv_8_squeeze_excite_conv_1", 0, 0]}}, 3.0], "kwargs": {}}]}, {"class_name": "ReLU", "config": {"name": "re_lu_11", "trainable": false, "dtype": {"module": "keras", "class_name": "DTypePolicy", "config": {"name": "float32"}, "registered_name": null}, "max_value": 6.0, "negative_slope": 0.0, "threshold": 0.0}, "name": "re_lu_11", "inbound_nodes": [{"args": [{"class_name": "__keras_tensor__", "config": {"shape": [null, 1, 1, 288], "dtype": "float32", "keras_history": ["add_6", 0, 0]}}], "kwargs": {}}]}, {"class_name": "Multiply", "config": {"name": "multiply_6"}, "name": "multiply_6", "inbound_nodes": [{"args": [{"class_name": "__keras_tensor__", "config": {"shape": [null, 1, 1, 288], "dtype": "float32", "keras_history": ["re_lu_11", 0, 0]}}, 0.16666666666666666], "kwargs": {}}]}, {"class_name": "Multiply", "config": {"name": "expanded_conv_8_squeeze_excite_mul", "trainable": false, "dtype": {"module": "keras", "class_name": "DTypePolicy", "config": {"name": "float32"}, "registered_name": null}}, "name": "expanded_conv_8_squeeze_excite_mul", "inbound_nodes": [{"args": [[{"class_name": "__keras_tensor__", "config": {"shape": [null, 7, 7, 288], "dtype": "float32", "keras_history": ["activation_12", 0, 0]}}, {"class_name": "__keras_tensor__", "config": {"shape": [null, 1, 1, 288], "dtype": "float32", "keras_history": ["multiply_6", 0, 0]}}]], "kwargs": {}}]}, {"class_name": "Conv2D", "config": {"name": "expanded_conv_8_project", "trainable": false, "dtype": {"module": "keras", "class_name": "DTypePolicy", "config": {"name": "float32"}, "registered_name": null}, "filters": 96, "kernel_size": [1, 1], "strides": [1, 1], "padding": "same", "data_format": "channels_last", "dilation_rate": [1, 1], "groups": 1, "activation": "linear", "use_bias": false, "kernel_initializer": {"module": "keras.initializers", "class_name": "GlorotUniform", "config": {"seed": null}, "registered_name": null}, "bias_initializer": {"module": "keras.initializers", "class_name": "Zeros", "config": {}, "registered_name": null}, "kernel_regularizer": null, "bias_regularizer": null, "activity_regularizer": null, "kernel_constraint": null, "bias_constraint": null}, "name": "expanded_conv_8_project", "inbound_nodes": [{"args": [{"class_name": "__keras_tensor__", "config": {"shape": [null, 7, 7, 288], "dtype": "float32", "keras_history": ["expanded_conv_8_squeeze_excite_mul", 0, 0]}}], "kwargs": {}}]}, {"class_name": "BatchNormalization", "config": {"name": "expanded_conv_8_project_bn", "trainable": false, "dtype": {"module": "keras", "class_name": "DTypePolicy", "config": {"name": "float32"}, "registered_name": null}, "axis": -1, "momentum": 0.999, "epsilon": 0.001, "center": true, "scale": true, "beta_initializer": {"module": "keras.initializers", "class_name": "Zeros", "config": {}, "registered_name": null}, "gamma_initializer": {"module": "keras.initializers", "class_name": "Ones", "config": {}, "registered_name": null}, "moving_mean_initializer": {"module": "keras.initializers", "class_name": "Zeros", "config": {}, "registered_name": null}, "moving_variance_initializer": {"module": "keras.initializers", "class_name": "Ones", "config": {}, "registered_name": null}, "beta_regularizer": null, "gamma_regularizer": null, "beta_constraint": null, "gamma_constraint": null, "synchronized": false}, "name": "expanded_conv_8_project_bn", "inbound_nodes": [{"args": [{"class_name": "__keras_tensor__", "config": {"shape": [null, 7, 7, 96], "dtype": "float32", "keras_history": ["expanded_conv_8_project", 0, 0]}}], "kwargs": {"mask": null}}]}, {"class_name": "Conv2D", "config": {"name": "expanded_conv_9_expand", "trainable": false, "dtype": {"module": "keras", "class_name": "DTypePolicy", "config": {"name": "float32"}, "registered_name": null}, "filters": 576, "kernel_size": [1, 1], "strides": [1, 1], "padding": "same", "data_format": "channels_last", "dilation_rate": [1, 1], "groups": 1, "activation": "linear", "use_bias": false, "kernel_initializer": {"module": "keras.initializers", "class_name": "GlorotUniform", "config": {"seed": null}, "registered_name": null}, "bias_initializer": {"module": "keras.initializers", "class_name": "Zeros", "config": {}, "registered_name": null}, "kernel_regularizer": null, "bias_regularizer": null, "activity_regularizer": null, "kernel_constraint": null, "bias_constraint": null}, "name": "expanded_conv_9_expand", "inbound_nodes": [{"args": [{"class_name": "__keras_tensor__", "config": {"shape": [null, 7, 7, 96], "dtype": "float32", "keras_history": ["expanded_conv_8_project_bn", 0, 0]}}], "kwargs": {}}]}, {"class_name": "BatchNormalization", "config": {"name": "expanded_conv_9_expand_bn", "trainable": false, "dtype": {"module": "keras", "class_name": "DTypePolicy", "config": {"name": "float32"}, "registered_name": null}, "axis": -1, "momentum": 0.999, "epsilon": 0.001, "center": true, "scale": true, "beta_initializer": {"module": "keras.initializers", "class_name": "Zeros", "config": {}, "registered_name": null}, "gamma_initializer": {"module": "keras.initializers", "class_name": "Ones", "config": {}, "registered_name": null}, "moving_mean_initializer": {"module": "keras.initializers", "class_name": "Zeros", "config": {}, "registered_name": null}, "moving_variance_initializer": {"module": "keras.initializers", "class_name": "Ones", "config": {}, "registered_name": null}, "beta_regularizer": null, "gamma_regularizer": null, "beta_constraint": null, "gamma_constraint": null, "synchronized": false}, "name": "expanded_conv_9_expand_bn", "inbound_nodes": [{"args": [{"class_name": "__keras_tensor__", "config": {"shape": [null, 7, 7, 576], "dtype": "float32", "keras_history": ["expanded_conv_9_expand", 0, 0]}}], "kwargs": {"mask": null}}]}, {"class_name": "Activation", "config": {"name": "activation_13", "trainable": false, "dtype": {"module": "keras", "class_name": "DTypePolicy", "config": {"name": "float32"}, "registered_name": null}, "activation": "hard_silu"}, "name": "activation_13", "inbound_nodes": [{"args": [{"class_name": "__keras_tensor__", "config": {"shape": [null, 7, 7, 576], "dtype": "float32", "keras_history": ["expanded_conv_9_expand_bn", 0, 0]}}], "kwargs": {}}]}, {"class_name": "DepthwiseConv2D", "config": {"name": "expanded_conv_9_depthwise", "trainable": true, "dtype": {"module": "keras", "class_name": "DTypePolicy", "config": {"name": "float32"}, "registered_name": null}, "depth_multiplier": 1, "kernel_size": [5, 5], "strides": [1, 1], "padding": "same", "data_format": "channels_last", "dilation_rate": [1, 1], "activation": "linear", "use_bias": false, "depthwise_initializer": {"module": "keras.initializers", "class_name": "GlorotUniform", "config": {"seed": null}, "registered_name": null}, "bias_initializer": {"module": "keras.initializers", "class_name": "Zeros", "config": {}, "registered_name": null}, "depthwise_regularizer": null, "bias_regularizer": null, "activity_regularizer": null, "depthwise_constraint": null, "bias_constraint": null}, "name": "expanded_conv_9_depthwise", "inbound_nodes": [{"args": [{"class_name": "__keras_tensor__", "config": {"shape": [null, 7, 7, 576], "dtype": "float32", "keras_history": ["activation_13", 0, 0]}}], "kwargs": {}}]}, {"class_name": "BatchNormalization", "config": {"name": "expanded_conv_9_depthwise_bn", "trainable": true, "dtype": {"module": "keras", "class_name": "DTypePolicy", "config": {"name": "float32"}, "registered_name": null}, "axis": -1, "momentum": 0.999, "epsilon": 0.001, "center": true, "scale": true, "beta_initializer": {"module": "keras.initializers", "class_name": "Zeros", "config": {}, "registered_name": null}, "gamma_initializer": {"module": "keras.initializers", "class_name": "Ones", "config": {}, "registered_name": null}, "moving_mean_initializer": {"module": "keras.initializers", "class_name": "Zeros", "config": {}, "registered_name": null}, "moving_variance_initializer": {"module": "keras.initializers", "class_name": "Ones", "config": {}, "registered_name": null}, "beta_regularizer": null, "gamma_regularizer": null, "beta_constraint": null, "gamma_constraint": null, "synchronized": false}, "name": "expanded_conv_9_depthwise_bn", "inbound_nodes": [{"args": [{"class_name": "__keras_tensor__", "config": {"shape": [null, 7, 7, 576], "dtype": "float32", "keras_history": ["expanded_conv_9_depthwise", 0, 0]}}], "kwargs": {"mask": null}}]}, {"class_name": "Activation", "config": {"name": "activation_14", "trainable": true, "dtype": {"module": "keras", "class_name": "DTypePolicy", "config": {"name": "float32"}, "registered_name": null}, "activation": "hard_silu"}, "name": "activation_14", "inbound_nodes": [{"args": [{"class_name": "__keras_tensor__", "config": {"shape": [null, 7, 7, 576], "dtype": "float32", "keras_history": ["expanded_conv_9_depthwise_bn", 0, 0]}}], "kwargs": {}}]}, {"class_name": "GlobalAveragePooling2D", "config": {"name": "expanded_conv_9_squeeze_excite_avg_pool", "trainable": true, "dtype": {"module": "keras", "class_name": "DTypePolicy", "config": {"name": "float32"}, "registered_name": null}, "data_format": "channels_last", "keepdims": true}, "name": "expanded_conv_9_squeeze_excite_avg_pool", "inbound_nodes": [{"args": [{"class_name": "__keras_tensor__", "config": {"shape": [null, 7, 7, 576], "dtype": "float32", "keras_history": ["activation_14", 0, 0]}}], "kwargs": {}}]}, {"class_name": "Conv2D", "config": {"name": "expanded_conv_9_squeeze_excite_conv", "trainable": true, "dtype": {"module": "keras", "class_name": "DTypePolicy", "config": {"name": "float32"}, "registered_name": null}, "filters": 144, "kernel_size": [1, 1], "strides": [1, 1], "padding": "same", "data_format": "channels_last", "dilation_rate": [1, 1], "groups": 1, "activation": "linear", "use_bias": true, "kernel_initializer": {"module": "keras.initializers", "class_name": "GlorotUniform", "config": {"seed": null}, "registered_name": null}, "bias_initializer": {"module": "keras.initializers", "class_name": "Zeros", "config": {}, "registered_name": null}, "kernel_regularizer": null, "bias_regularizer": null, "activity_regularizer": null, "kernel_constraint": null, "bias_constraint": null}, "name": "expanded_conv_9_squeeze_excite_conv", "inbound_nodes": [{"args": [{"class_name": "__keras_tensor__", "config": {"shape": [null, 1, 1, 576], "dtype": "float32", "keras_history": ["expanded_conv_9_squeeze_excite_avg_pool", 0, 0]}}], "kwargs": {}}]}, {"class_name": "ReLU", "config": {"name": "expanded_conv_9_squeeze_excite_relu", "trainable": true, "dtype": {"module": "keras", "class_name": "DTypePolicy", "config": {"name": "float32"}, "registered_name": null}, "max_value": null, "negative_slope": 0.0, "threshold": 0.0}, "name": "expanded_conv_9_squeeze_excite_relu", "inbound_nodes": [{"args": [{"class_name": "__keras_tensor__", "config": {"shape": [null, 1, 1, 144], "dtype": "float32", "keras_history": ["expanded_conv_9_squeeze_excite_conv", 0, 0]}}], "kwargs": {}}]}, {"class_name": "Conv2D", "config": {"name": "expanded_conv_9_squeeze_excite_conv_1", "trainable": true, "dtype": {"module": "keras", "class_name": "DTypePolicy", "config": {"name": "float32"}, "registered_name": null}, "filters": 576, "kernel_size": [1, 1], "strides": [1, 1], "padding": "same", "data_format": "channels_last", "dilation_rate": [1, 1], "groups": 1, "activation": "linear", "use_bias": true, "kernel_initializer": {"module": "keras.initializers", "class_name": "GlorotUniform", "config": {"seed": null}, "registered_name": null}, "bias_initializer": {"module": "keras.initializers", "class_name": "Zeros", "config": {}, "registered_name": null}, "kernel_regularizer": null, "bias_regularizer": null, "activity_regularizer": null, "kernel_constraint": null, "bias_constraint": null}, "name": "expanded_conv_9_squeeze_excite_conv_1", "inbound_nodes": [{"args": [{"class_name": "__keras_tensor__", "config": {"shape": [null, 1, 1, 144], "dtype": "float32", "keras_history": ["expanded_conv_9_squeeze_excite_relu", 0, 0]}}], "kwargs": {}}]}, {"class_name": "Add", "config": {"name": "add_7"}, "name": "add_7", "inbound_nodes": [{"args": [{"class_name": "__keras_tensor__", "config": {"shape": [null, 1, 1, 576], "dtype": "float32", "keras_history": ["expanded_conv_9_squeeze_excite_conv_1", 0, 0]}}, 3.0], "kwargs": {}}]}, {"class_name": "ReLU", "config": {"name": "re_lu_12", "trainable": true, "dtype": {"module": "keras", "class_name": "DTypePolicy", "config": {"name": "float32"}, "registered_name": null}, "max_value": 6.0, "negative_slope": 0.0, "threshold": 0.0}, "name": "re_lu_12", "inbound_nodes": [{"args": [{"class_name": "__keras_tensor__", "config": {"shape": [null, 1, 1, 576], "dtype": "float32", "keras_history": ["add_7", 0, 0]}}], "kwargs": {}}]}, {"class_name": "Multiply", "config": {"name": "multiply_7"}, "name": "multiply_7", "inbound_nodes": [{"args": [{"class_name": "__keras_tensor__", "config": {"shape": [null, 1, 1, 576], "dtype": "float32", "keras_history": ["re_lu_12", 0, 0]}}, 0.16666666666666666], "kwargs": {}}]}, {"class_name": "Multiply", "config": {"name": "expanded_conv_9_squeeze_excite_mul", "trainable": true, "dtype": {"module": "keras", "class_name": "DTypePolicy", "config": {"name": "float32"}, "registered_name": null}}, "name": "expanded_conv_9_squeeze_excite_mul", "inbound_nodes": [{"args": [[{"class_name": "__keras_tensor__", "config": {"shape": [null, 7, 7, 576], "dtype": "float32", "keras_history": ["activation_14", 0, 0]}}, {"class_name": "__keras_tensor__", "config": {"shape": [null, 1, 1, 576], "dtype": "float32", "keras_history": ["multiply_7", 0, 0]}}]], "kwargs": {}}]}, {"class_name": "Conv2D", "config": {"name": "expanded_conv_9_project", "trainable": true, "dtype": {"module": "keras", "class_name": "DTypePolicy", "config": {"name": "float32"}, "registered_name": null}, "filters": 96, "kernel_size": [1, 1], "strides": [1, 1], "padding": "same", "data_format": "channels_last", "dilation_rate": [1, 1], "groups": 1, "activation": "linear", "use_bias": false, "kernel_initializer": {"module": "keras.initializers", "class_name": "GlorotUniform", "config": {"seed": null}, "registered_name": null}, "bias_initializer": {"module": "keras.initializers", "class_name": "Zeros", "config": {}, "registered_name": null}, "kernel_regularizer": null, "bias_regularizer": null, "activity_regularizer": null, "kernel_constraint": null, "bias_constraint": null}, "name": "expanded_conv_9_project", "inbound_nodes": [{"args": [{"class_name": "__keras_tensor__", "config": {"shape": [null, 7, 7, 576], "dtype": "float32", "keras_history": ["expanded_conv_9_squeeze_excite_mul", 0, 0]}}], "kwargs": {}}]}, {"class_name": "BatchNormalization", "config": {"name": "expanded_conv_9_project_bn", "trainable": true, "dtype": {"module": "keras", "class_name": "DTypePolicy", "config": {"name": "float32"}, "registered_name": null}, "axis": -1, "momentum": 0.999, "epsilon": 0.001, "center": true, "scale": true, "beta_initializer": {"module": "keras.initializers", "class_name": "Zeros", "config": {}, "registered_name": null}, "gamma_initializer": {"module": "keras.initializers", "class_name": "Ones", "config": {}, "registered_name": null}, "moving_mean_initializer": {"module": "keras.initializers", "class_name": "Zeros", "config": {}, "registered_name": null}, "moving_variance_initializer": {"module": "keras.initializers", "class_name": "Ones", "config": {}, "registered_name": null}, "beta_regularizer": null, "gamma_regularizer": null, "beta_constraint": null, "gamma_constraint": null, "synchronized": false}, "name": "expanded_conv_9_project_bn", "inbound_nodes": [{"args": [{"class_name": "__keras_tensor__", "config": {"shape": [null, 7, 7, 96], "dtype": "float32", "keras_history": ["expanded_conv_9_project", 0, 0]}}], "kwargs": {"mask": null}}]}, {"class_name": "Add", "config": {"name": "expanded_conv_9_add", "trainable": true, "dtype": {"module": "keras", "class_name": "DTypePolicy", "config": {"name": "float32"}, "registered_name": null}}, "name": "expanded_conv_9_add", "inbound_nodes": [{"args": [[{"class_name": "__keras_tensor__", "config": {"shape": [null, 7, 7, 96], "dtype": "float32", "keras_history": ["expanded_conv_8_project_bn", 0, 0]}}, {"class_name": "__keras_tensor__", "config": {"shape": [null, 7, 7, 96], "dtype": "float32", "keras_history": ["expanded_conv_9_project_bn", 0, 0]}}]], "kwargs": {}}]}, {"class_name": "Conv2D", "config": {"name": "expanded_conv_10_expand", "trainable": true, "dtype": {"module": "keras", "class_name": "DTypePolicy", "config": {"name": "float32"}, "registered_name": null}, "filters": 576, "kernel_size": [1, 1], "strides": [1, 1], "padding": "same", "data_format": "channels_last", "dilation_rate": [1, 1], "groups": 1, "activation": "linear", "use_bias": false, "kernel_initializer": {"module": "keras.initializers", "class_name": "GlorotUniform", "config": {"seed": null}, "registered_name": null}, "bias_initializer": {"module": "keras.initializers", "class_name": "Zeros", "config": {}, "registered_name": null}, "kernel_regularizer": null, "bias_regularizer": null, "activity_regularizer": null, "kernel_constraint": null, "bias_constraint": null}, "name": "expanded_conv_10_expand", "inbound_nodes": [{"args": [{"class_name": "__keras_tensor__", "config": {"shape": [null, 7, 7, 96], "dtype": "float32", "keras_history": ["expanded_conv_9_add", 0, 0]}}], "kwargs": {}}]}, {"class_name": "BatchNormalization", "config": {"name": "expanded_conv_10_expand_bn", "trainable": true, "dtype": {"module": "keras", "class_name": "DTypePolicy", "config": {"name": "float32"}, "registered_name": null}, "axis": -1, "momentum": 0.999, "epsilon": 0.001, "center": true, "scale": true, "beta_initializer": {"module": "keras.initializers", "class_name": "Zeros", "config": {}, "registered_name": null}, "gamma_initializer": {"module": "keras.initializers", "class_name": "Ones", "config": {}, "registered_name": null}, "moving_mean_initializer": {"module": "keras.initializers", "class_name": "Zeros", "config": {}, "registered_name": null}, "moving_variance_initializer": {"module": "keras.initializers", "class_name": "Ones", "config": {}, "registered_name": null}, "beta_regularizer": null, "gamma_regularizer": null, "beta_constraint": null, "gamma_constraint": null, "synchronized": false}, "name": "expanded_conv_10_expand_bn", "inbound_nodes": [{"args": [{"class_name": "__keras_tensor__", "config": {"shape": [null, 7, 7, 576], "dtype": "float32", "keras_history": ["expanded_conv_10_expand", 0, 0]}}], "kwargs": {"mask": null}}]}, {"class_name": "Activation", "config": {"name": "activation_15", "trainable": true, "dtype": {"module": "keras", "class_name": "DTypePolicy", "config": {"name": "float32"}, "registered_name": null}, "activation": "hard_silu"}, "name": "activation_15", "inbound_nodes": [{"args": [{"class_name": "__keras_tensor__", "config": {"shape": [null, 7, 7, 576], "dtype": "float32", "keras_history": ["expanded_conv_10_expand_bn", 0, 0]}}], "kwargs": {}}]}, {"class_name": "DepthwiseConv2D", "config": {"name": "expanded_conv_10_depthwise", "trainable": true, "dtype": {"module": "keras", "class_name": "DTypePolicy", "config": {"name": "float32"}, "registered_name": null}, "depth_multiplier": 1, "kernel_size": [5, 5], "strides": [1, 1], "padding": "same", "data_format": "channels_last", "dilation_rate": [1, 1], "activation": "linear", "use_bias": false, "depthwise_initializer": {"module": "keras.initializers", "class_name": "GlorotUniform", "config": {"seed": null}, "registered_name": null}, "bias_initializer": {"module": "keras.initializers", "class_name": "Zeros", "config": {}, "registered_name": null}, "depthwise_regularizer": null, "bias_regularizer": null, "activity_regularizer": null, "depthwise_constraint": null, "bias_constraint": null}, "name": "expanded_conv_10_depthwise", "inbound_nodes": [{"args": [{"class_name": "__keras_tensor__", "config": {"shape": [null, 7, 7, 576], "dtype": "float32", "keras_history": ["activation_15", 0, 0]}}], "kwargs": {}}]}, {"class_name": "BatchNormalization", "config": {"name": "expanded_conv_10_depthwise_bn", "trainable": true, "dtype": {"module": "keras", "class_name": "DTypePolicy", "config": {"name": "float32"}, "registered_name": null}, "axis": -1, "momentum": 0.999, "epsilon": 0.001, "center": true, "scale": true, "beta_initializer": {"module": "keras.initializers", "class_name": "Zeros", "config": {}, "registered_name": null}, "gamma_initializer": {"module": "keras.initializers", "class_name": "Ones", "config": {}, "registered_name": null}, "moving_mean_initializer": {"module": "keras.initializers", "class_name": "Zeros", "config": {}, "registered_name": null}, "moving_variance_initializer": {"module": "keras.initializers", "class_name": "Ones", "config": {}, "registered_name": null}, "beta_regularizer": null, "gamma_regularizer": null, "beta_constraint": null, "gamma_constraint": null, "synchronized": false}, "name": "expanded_conv_10_depthwise_bn", "inbound_nodes": [{"args": [{"class_name": "__keras_tensor__", "config": {"shape": [null, 7, 7, 576], "dtype": "float32", "keras_history": ["expanded_conv_10_depthwise", 0, 0]}}], "kwargs": {"mask": null}}]}, {"class_name": "Activation", "config": {"name": "activation_16", "trainable": true, "dtype": {"module": "keras", "class_name": "DTypePolicy", "config": {"name": "float32"}, "registered_name": null}, "activation": "hard_silu"}, "name": "activation_16", "inbound_nodes": [{"args": [{"class_name": "__keras_tensor__", "config": {"shape": [null, 7, 7, 576], "dtype": "float32", "keras_history": ["expanded_conv_10_depthwise_bn", 0, 0]}}], "kwargs": {}}]}, {"class_name": "GlobalAveragePooling2D", "config": {"name": "expanded_conv_10_squeeze_excite_avg_pool", "trainable": true, "dtype": {"module": "keras", "class_name": "DTypePolicy", "config": {"name": "float32"}, "registered_name": null}, "data_format": "channels_last", "keepdims": true}, "name": "expanded_conv_10_squeeze_excite_avg_pool", "inbound_nodes": [{"args": [{"class_name": "__keras_tensor__", "config": {"shape": [null, 7, 7, 576], "dtype": "float32", "keras_history": ["activation_16", 0, 0]}}], "kwargs": {}}]}, {"class_name": "Conv2D", "config": {"name": "expanded_conv_10_squeeze_excite_conv", "trainable": true, "dtype": {"module": "keras", "class_name": "DTypePolicy", "config": {"name": "float32"}, "registered_name": null}, "filters": 144, "kernel_size": [1, 1], "strides": [1, 1], "padding": "same", "data_format": "channels_last", "dilation_rate": [1, 1], "groups": 1, "activation": "linear", "use_bias": true, "kernel_initializer": {"module": "keras.initializers", "class_name": "GlorotUniform", "config": {"seed": null}, "registered_name": null}, "bias_initializer": {"module": "keras.initializers", "class_name": "Zeros", "config": {}, "registered_name": null}, "kernel_regularizer": null, "bias_regularizer": null, "activity_regularizer": null, "kernel_constraint": null, "bias_constraint": null}, "name": "expanded_conv_10_squeeze_excite_conv", "inbound_nodes": [{"args": [{"class_name": "__keras_tensor__", "config": {"shape": [null, 1, 1, 576], "dtype": "float32", "keras_history": ["expanded_conv_10_squeeze_excite_avg_pool", 0, 0]}}], "kwargs": {}}]}, {"class_name": "ReLU", "config": {"name": "expanded_conv_10_squeeze_excite_relu", "trainable": true, "dtype": {"module": "keras", "class_name": "DTypePolicy", "config": {"name": "float32"}, "registered_name": null}, "max_value": null, "negative_slope": 0.0, "threshold": 0.0}, "name": "expanded_conv_10_squeeze_excite_relu", "inbound_nodes": [{"args": [{"class_name": "__keras_tensor__", "config": {"shape": [null, 1, 1, 144], "dtype": "float32", "keras_history": ["expanded_conv_10_squeeze_excite_conv", 0, 0]}}], "kwargs": {}}]}, {"class_name": "Conv2D", "config": {"name": "expanded_conv_10_squeeze_excite_conv_1", "trainable": true, "dtype": {"module": "keras", "class_name": "DTypePolicy", "config": {"name": "float32"}, "registered_name": null}, "filters": 576, "kernel_size": [1, 1], "strides": [1, 1], "padding": "same", "data_format": "channels_last", "dilation_rate": [1, 1], "groups": 1, "activation": "linear", "use_bias": true, "kernel_initializer": {"module": "keras.initializers", "class_name": "GlorotUniform", "config": {"seed": null}, "registered_name": null}, "bias_initializer": {"module": "keras.initializers", "class_name": "Zeros", "config": {}, "registered_name": null}, "kernel_regularizer": null, "bias_regularizer": null, "activity_regularizer": null, "kernel_constraint": null, "bias_constraint": null}, "name": "expanded_conv_10_squeeze_excite_conv_1", "inbound_nodes": [{"args": [{"class_name": "__keras_tensor__", "config": {"shape": [null, 1, 1, 144], "dtype": "float32", "keras_history": ["expanded_conv_10_squeeze_excite_relu", 0, 0]}}], "kwargs": {}}]}, {"class_name": "Add", "config": {"name": "add_8"}, "name": "add_8", "inbound_nodes": [{"args": [{"class_name": "__keras_tensor__", "config": {"shape": [null, 1, 1, 576], "dtype": "float32", "keras_history": ["expanded_conv_10_squeeze_excite_conv_1", 0, 0]}}, 3.0], "kwargs": {}}]}, {"class_name": "ReLU", "config": {"name": "re_lu_13", "trainable": true, "dtype": {"module": "keras", "class_name": "DTypePolicy", "config": {"name": "float32"}, "registered_name": null}, "max_value": 6.0, "negative_slope": 0.0, "threshold": 0.0}, "name": "re_lu_13", "inbound_nodes": [{"args": [{"class_name": "__keras_tensor__", "config": {"shape": [null, 1, 1, 576], "dtype": "float32", "keras_history": ["add_8", 0, 0]}}], "kwargs": {}}]}, {"class_name": "Multiply", "config": {"name": "multiply_8"}, "name": "multiply_8", "inbound_nodes": [{"args": [{"class_name": "__keras_tensor__", "config": {"shape": [null, 1, 1, 576], "dtype": "float32", "keras_history": ["re_lu_13", 0, 0]}}, 0.16666666666666666], "kwargs": {}}]}, {"class_name": "Multiply", "config": {"name": "expanded_conv_10_squeeze_excite_mul", "trainable": true, "dtype": {"module": "keras", "class_name": "DTypePolicy", "config": {"name": "float32"}, "registered_name": null}}, "name": "expanded_conv_10_squeeze_excite_mul", "inbound_nodes": [{"args": [[{"class_name": "__keras_tensor__", "config": {"shape": [null, 7, 7, 576], "dtype": "float32", "keras_history": ["activation_16", 0, 0]}}, {"class_name": "__keras_tensor__", "config": {"shape": [null, 1, 1, 576], "dtype": "float32", "keras_history": ["multiply_8", 0, 0]}}]], "kwargs": {}}]}, {"class_name": "Conv2D", "config": {"name": "expanded_conv_10_project", "trainable": true, "dtype": {"module": "keras", "class_name": "DTypePolicy", "config": {"name": "float32"}, "registered_name": null}, "filters": 96, "kernel_size": [1, 1], "strides": [1, 1], "padding": "same", "data_format": "channels_last", "dilation_rate": [1, 1], "groups": 1, "activation": "linear", "use_bias": false, "kernel_initializer": {"module": "keras.initializers", "class_name": "GlorotUniform", "config": {"seed": null}, "registered_name": null}, "bias_initializer": {"module": "keras.initializers", "class_name": "Zeros", "config": {}, "registered_name": null}, "kernel_regularizer": null, "bias_regularizer": null, "activity_regularizer": null, "kernel_constraint": null, "bias_constraint": null}, "name": "expanded_conv_10_project", "inbound_nodes": [{"args": [{"class_name": "__keras_tensor__", "config": {"shape": [null, 7, 7, 576], "dtype": "float32", "keras_history": ["expanded_conv_10_squeeze_excite_mul", 0, 0]}}], "kwargs": {}}]}, {"class_name": "BatchNormalization", "config": {"name": "expanded_conv_10_project_bn", "trainable": true, "dtype": {"module": "keras", "class_name": "DTypePolicy", "config": {"name": "float32"}, "registered_name": null}, "axis": -1, "momentum": 0.999, "epsilon": 0.001, "center": true, "scale": true, "beta_initializer": {"module": "keras.initializers", "class_name": "Zeros", "config": {}, "registered_name": null}, "gamma_initializer": {"module": "keras.initializers", "class_name": "Ones", "config": {}, "registered_name": null}, "moving_mean_initializer": {"module": "keras.initializers", "class_name": "Zeros", "config": {}, "registered_name": null}, "moving_variance_initializer": {"module": "keras.initializers", "class_name": "Ones", "config": {}, "registered_name": null}, "beta_regularizer": null, "gamma_regularizer": null, "beta_constraint": null, "gamma_constraint": null, "synchronized": false}, "name": "expanded_conv_10_project_bn", "inbound_nodes": [{"args": [{"class_name": "__keras_tensor__", "config": {"shape": [null, 7, 7, 96], "dtype": "float32", "keras_history": ["expanded_conv_10_project", 0, 0]}}], "kwargs": {"mask": null}}]}, {"class_name": "Add", "config": {"name": "expanded_conv_10_add", "trainable": true, "dtype": {"module": "keras", "class_name": "DTypePolicy", "config": {"name": "float32"}, "registered_name": null}}, "name": "expanded_conv_10_add", "inbound_nodes": [{"args": [[{"class_name": "__keras_tensor__", "config": {"shape": [null, 7, 7, 96], "dtype": "float32", "keras_history": ["expanded_conv_9_add", 0, 0]}}, {"class_name": "__keras_tensor__", "config": {"shape": [null, 7, 7, 96], "dtype": "float32", "keras_history": ["expanded_conv_10_project_bn", 0, 0]}}]], "kwargs": {}}]}, {"class_name": "Conv2D", "config": {"name": "conv_1", "trainable": true, "dtype": {"module": "keras", "class_name": "DTypePolicy", "config": {"name": "float32"}, "registered_name": null}, "filters": 576, "kernel_size": [1, 1], "strides": [1, 1], "padding": "same", "data_format": "channels_last", "dilation_rate": [1, 1], "groups": 1, "activation": "linear", "use_bias": false, "kernel_initializer": {"module": "keras.initializers", "class_name": "GlorotUniform", "config": {"seed": null}, "registered_name": null}, "bias_initializer": {"module": "keras.initializers", "class_name": "Zeros", "config": {}, "registered_name": null}, "kernel_regularizer": null, "bias_regularizer": null, "activity_regularizer": null, "kernel_constraint": null, "bias_constraint": null}, "name": "conv_1", "inbound_nodes": [{"args": [{"class_name": "__keras_tensor__", "config": {"shape": [null, 7, 7, 96], "dtype": "float32", "keras_history": ["expanded_conv_10_add", 0, 0]}}], "kwargs": {}}]}, {"class_name": "BatchNormalization", "config": {"name": "conv_1_bn", "trainable": true, "dtype": {"module": "keras", "class_name": "DTypePolicy", "config": {"name": "float32"}, "registered_name": null}, "axis": -1, "momentum": 0.999, "epsilon": 0.001, "center": true, "scale": true, "beta_initializer": {"module": "keras.initializers", "class_name": "Zeros", "config": {}, "registered_name": null}, "gamma_initializer": {"module": "keras.initializers", "class_name": "Ones", "config": {}, "registered_name": null}, "moving_mean_initializer": {"module": "keras.initializers", "class_name": "Zeros", "config": {}, "registered_name": null}, "moving_variance_initializer": {"module": "keras.initializers", "class_name": "Ones", "config": {}, "registered_name": null}, "beta_regularizer": null, "gamma_regularizer": null, "beta_constraint": null, "gamma_constraint": null, "synchronized": false}, "name": "conv_1_bn", "inbound_nodes": [{"args": [{"class_name": "__keras_tensor__", "config": {"shape": [null, 7, 7, 576], "dtype": "float32", "keras_history": ["conv_1", 0, 0]}}], "kwargs": {"mask": null}}]}, {"class_name": "Activation", "config": {"name": "activation_17", "trainable": true, "dtype": {"module": "keras", "class_name": "DTypePolicy", "config": {"name": "float32"}, "registered_name": null}, "activation": "hard_silu"}, "name": "activation_17", "inbound_nodes": [{"args": [{"class_name": "__keras_tensor__", "config": {"shape": [null, 7, 7, 576], "dtype": "float32", "keras_history": ["conv_1_bn", 0, 0]}}], "kwargs": {}}]}, {"class_name": "GlobalAveragePooling2D", "config": {"name": "global_average_pooling2d", "trainable": true, "dtype": {"module": "keras", "class_name": "DTypePolicy", "config": {"name": "float32"}, "registered_name": null}, "data_format": "channels_last", "keepdims": false}, "name": "global_average_pooling2d", "inbound_nodes": [{"args": [{"class_name": "__keras_tensor__", "config": {"shape": [null, 7, 7, 576], "dtype": "float32", "keras_history": ["activation_17", 0, 0]}}], "kwargs": {}}]}, {"class_name": "Dense", "config": {"name": "dense", "trainable": true, "dtype": {"module": "keras", "class_name": "DTypePolicy", "config": {"name": "float32"}, "registered_name": null}, "units": 256, "activation": "relu", "use_bias": true, "kernel_initializer": {"module": "keras.initializers", "class_name": "GlorotUniform", "config": {"seed": null}, "registered_name": null}, "bias_initializer": {"module": "keras.initializers", "class_name": "Zeros", "config": {}, "registered_name": null}, "kernel_regularizer": {"module": "keras.regularizers", "class_name": "L2", "config": {"l2": 0.01}, "registered_name": null}, "bias_regularizer": null, "kernel_constraint": null, "bias_constraint": null}, "name": "dense", "inbound_nodes": [{"args": [{"class_name": "__keras_tensor__", "config": {"shape": [null, 576], "dtype": "float32", "keras_history": ["global_average_pooling2d", 0, 0]}}], "kwargs": {}}]}, {"class_name": "Dropout", "config": {"name": "dropout", "trainable": true, "dtype": {"module": "keras", "class_name": "DTypePolicy", "config": {"name": "float32"}, "registered_name": null}, "rate": 0.5, "seed": null, "noise_shape": null}, "name": "dropout", "inbound_nodes": [{"args": [{"class_name": "__keras_tensor__", "config": {"shape": [null, 256], "dtype": "float32", "keras_history": ["dense", 0, 0]}}], "kwargs": {"training": false}}]}, {"class_name": "Dense", "config": {"name": "dense_1", "trainable": true, "dtype": {"module": "keras", "class_name": "DTypePolicy", "config": {"name": "float32"}, "registered_name": null}, "units": 128, "activation": "relu", "use_bias": true, "kernel_initializer": {"module": "keras.initializers", "class_name": "GlorotUniform", "config": {"seed": null}, "registered_name": null}, "bias_initializer": {"module": "keras.initializers", "class_name": "Zeros", "config": {}, "registered_name": null}, "kernel_regularizer": {"module": "keras.regularizers", "class_name": "L2", "config": {"l2": 0.01}, "registered_name": null}, "bias_regularizer": null, "kernel_constraint": null, "bias_constraint": null}, "name": "dense_1", "inbound_nodes": [{"args": [{"class_name": "__keras_tensor__", "config": {"shape": [null, 256], "dtype": "float32", "keras_history": ["dropout", 0, 0]}}], "kwargs": {}}]}, {"class_name": "Dropout", "config": {"name": "dropout_1", "trainable": true, "dtype": {"module": "keras", "class_name": "DTypePolicy", "config": {"name": "float32"}, "registered_name": null}, "rate": 0.4, "seed": null, "noise_shape": null}, "name": "dropout_1", "inbound_nodes": [{"args": [{"class_name": "__keras_tensor__", "config": {"shape": [null, 128], "dtype": "float32", "keras_history": ["dense_1", 0, 0]}}], "kwargs": {"training": false}}]}, {"class_name": "Dense", "config": {"name": "dense_2", "trainable": true, "dtype": {"module": "keras", "class_name": "DTypePolicy", "config": {"name": "float32"}, "registered_name": null}, "units": 11, "activation": "softmax", "use_bias": true, "kernel_initializer": {"module": "keras.initializers", "class_name": "GlorotUniform", "config": {"seed": null}, "registered_name": null}, "bias_initializer": {"module": "keras.initializers", "class_name": "Zeros", "config": {}, "registered_name": null}, "kernel_regularizer": null, "bias_regularizer": null, "kernel_constraint": null, "bias_constraint": null}, "name": "dense_2", "inbound_nodes": [{"args": [{"class_name": "__keras_tensor__", "config": {"shape": [null, 128], "dtype": "float32", "keras_history": ["dropout_1", 0, 0]}}], "kwargs": {}}]}], "input_layers": [["input_layer", 0, 0]], "output_layers": [["dense_2", 0, 0]]}}, "training_config": {"loss": "categorical_crossentropy", "loss_weights": null, "metrics": ["accuracy"], "weighted_metrics": null, "run_eagerly": false, "steps_per_execution": 1, "jit_compile": true, "optimizer_config": {"class_name": "Adam", "config": {"name": "adam", "learning_rate": 9.999999747378752e-05, "weight_decay": null, "clipnorm": null, "global_clipnorm": null, "clipvalue": null, "use_ema": false, "ema_momentum": 0.99, "ema_overwrite_frequency": null, "loss_scale_factor": null, "gradient_accumulation_steps": null, "beta_1": 0.9, "beta_2": 0.999, "epsilon": 1e-07, "amsgrad": false}}}}, "weightsManifest": [{"paths": ["group1-shard1of2.bin", "group1-shard2of2.bin"], "weights": [{"name": "conv/kernel", "shape": [3, 3, 3, 16], "dtype": "float32"}, {"name": "conv_1/kernel", "shape": [1, 1, 96, 576], "dtype": "float32"}, {"name": "conv_1_bn/gamma", "shape": [576], "dtype": "float32"}, {"name": "conv_1_bn/beta", "shape": [576], "dtype": "float32"}, {"name": "conv_1_bn/moving_mean", "shape": [576], "dtype": "float32"}, {"name": "conv_1_bn/moving_variance", "shape": [576], "dtype": "float32"}, {"name": "conv_bn/gamma", "shape": [16], "dtype": "float32"}, {"name": "conv_bn/beta", "shape": [16], "dtype": "float32"}, {"name": "conv_bn/moving_mean", "shape": [16], "dtype": "float32"}, {"name": "conv_bn/moving_variance", "shape": [16], "dtype": "float32"}, {"name": "dense/kernel", "shape": [576, 256], "dtype": "float32"}, {"name": "dense/bias", "shape": [256], "dtype": "float32"}, {"name": "dense_1/kernel", "shape": [256, 128], "dtype": "float32"}, {"name": "dense_1/bias", "shape": [128], "dtype": "float32"}, {"name": "dense_2/kernel", "shape": [128, 11], "dtype": "float32"}, {"name": "dense_2/bias", "shape": [11], "dtype": "float32"}, {"name": "expanded_conv_10_depthwise/kernel", "shape": [5, 5, 576, 1], "dtype": "float32"}, {"name": "expanded_conv_10_depthwise_bn/gamma", "shape": [576], "dtype": "float32"}, {"name": "expanded_conv_10_depthwise_bn/beta", "shape": [576], "dtype": "float32"}, {"name": "expanded_conv_10_depthwise_bn/moving_mean", "shape": [576], "dtype": "float32"}, {"name": "expanded_conv_10_depthwise_bn/moving_variance", "shape": [576], "dtype": "float32"}, {"name": "expanded_conv_10_expand/kernel", "shape": [1, 1, 96, 576], "dtype": "float32"}, {"name": "expanded_conv_10_expand_bn/gamma", "shape": [576], "dtype": "float32"}, {"name": "expanded_conv_10_expand_bn/beta", "shape": [576], "dtype": "float32"}, {"name": "expanded_conv_10_expand_bn/moving_mean", "shape": [576], "dtype": "float32"}, {"name": "expanded_conv_10_expand_bn/moving_variance", "shape": [576], "dtype": "float32"}, {"name": "expanded_conv_10_project/kernel", "shape": [1, 1, 576, 96], "dtype": "float32"}, {"name": "expanded_conv_10_project_bn/gamma", "shape": [96], "dtype": "float32"}, {"name": "expanded_conv_10_project_bn/beta", "shape": [96], "dtype": "float32"}, {"name": "expanded_conv_10_project_bn/moving_mean", "shape": [96], "dtype": "float32"}, {"name": "expanded_conv_10_project_bn/moving_variance", "shape": [96], "dtype": "float32"}, {"name": "expanded_conv_10_squeeze_excite_conv/kernel", "shape": [1, 1, 576, 144], "dtype": "float32"}, {"name": "expanded_conv_10_squeeze_excite_conv/bias", "shape": [144], "dtype": "float32"}, {"name": "expanded_conv_10_squeeze_excite_conv_1/kernel", "shape": [1, 1, 144, 576], "dtype": "float32"}, {"name": "expanded_conv_10_squeeze_excite_conv_1/bias", "shape": [576], "dtype": "float32"}, {"name": "expanded_conv_1_depthwise/kernel", "shape": [3, 3, 72, 1], "dtype": "float32"}, {"name": "expanded_conv_1_depthwise_bn/gamma", "shape": [72], "dtype": "float32"}, {"name": "expanded_conv_1_depthwise_bn/beta", "shape": [72], "dtype": "float32"}, {"name": "expanded_conv_1_depthwise_bn/moving_mean", "shape": [72], "dtype": "float32"}, {"name": "expanded_conv_1_depthwise_bn/moving_variance", "shape": [72], "dtype": "float32"}, {"name": "expanded_conv_1_expand/kernel", "shape": [1, 1, 16, 72], "dtype": "float32"}, {"name": "expanded_conv_1_expand_bn/gamma", "shape": [72], "dtype": "float32"}, {"name": "expanded_conv_1_expand_bn/beta", "shape": [72], "dtype": "float32"}, {"name": "expanded_conv_1_expand_bn/moving_mean", "shape": [72], "dtype": "float32"}, {"name": "expanded_conv_1_expand_bn/moving_variance", "shape": [72], "dtype": "float32"}, {"name": "expanded_conv_1_project/kernel", "shape": [1, 1, 72, 24], "dtype": "float32"}, {"name": "expanded_conv_1_project_bn/gamma", "shape": [24], "dtype": "float32"}, {"name": "expanded_conv_1_project_bn/beta", "shape": [24], "dtype": "float32"}, {"name": "expanded_conv_1_project_bn/moving_mean", "shape": [24], "dtype": "float32"}, {"name": "expanded_conv_1_project_bn/moving_variance", "shape": [24], "dtype": "float32"}, {"name": "expanded_conv_2_depthwise/kernel", "shape": [3, 3, 88, 1], "dtype": "float32"}, {"name": "expanded_conv_2_depthwise_bn/gamma", "shape": [88], "dtype": "float32"}, {"name": "expanded_conv_2_depthwise_bn/beta", "shape": [88], "dtype": "float32"}, {"name": "expanded_conv_2_depthwise_bn/moving_mean", "shape": [88], "dtype": "float32"}, {"name": "expanded_conv_2_depthwise_bn/moving_variance", "shape": [88], "dtype": "float32"}, {"name": "expanded_conv_2_expand/kernel", "shape": [1, 1, 24, 88], "dtype": "float32"}, {"name": "expanded_conv_2_expand_bn/gamma", "shape": [88], "dtype": "float32"}, {"name": "expanded_conv_2_expand_bn/beta", "shape": [88], "dtype": "float32"}, {"name": "expanded_conv_2_expand_bn/moving_mean", "shape": [88], "dtype": "float32"}, {"name": "expanded_conv_2_expand_bn/moving_variance", "shape": [88], "dtype": "float32"}, {"name": "expanded_conv_2_project/kernel", "shape": [1, 1, 88, 24], "dtype": "float32"}, {"name": "expanded_conv_2_project_bn/gamma", "shape": [24], "dtype": "float32"}, {"name": "expanded_conv_2_project_bn/beta", "shape": [24], "dtype": "float32"}, {"name": "expanded_conv_2_project_bn/moving_mean", "shape": [24], "dtype": "float32"}, {"name": "expanded_conv_2_project_bn/moving_variance", "shape": [24], "dtype": "float32"}, {"name": "expanded_conv_3_depthwise/kernel", "shape": [5, 5, 96, 1], "dtype": "float32"}, {"name": "expanded_conv_3_depthwise_bn/gamma", "shape": [96], "dtype": "float32"}, {"name": "expanded_conv_3_depthwise_bn/beta", "shape": [96], "dtype": "float32"}, {"name": "expanded_conv_3_depthwise_bn/moving_mean", "shape": [96], "dtype": "float32"}, {"name": "expanded_conv_3_depthwise_bn/moving_variance", "shape": [96], "dtype": "float32"}, {"name": "expanded_conv_3_expand/kernel", "shape": [1, 1, 24, 96], "dtype": "float32"}, {"name": "expanded_conv_3_expand_bn/gamma", "shape": [96], "dtype": "float32"}, {"name": "expanded_conv_3_expand_bn/beta", "shape": [96], "dtype": "float32"}, {"name": "expanded_conv_3_expand_bn/moving_mean", "shape": [96], "dtype": "float32"}, {"name": "expanded_conv_3_expand_bn/moving_variance", "shape": [96], "dtype": "float32"}, {"name": "expanded_conv_3_project/kernel", "shape": [1, 1, 96, 40], "dtype": "float32"}, {"name": "expanded_conv_3_project_bn/gamma", "shape": [40], "dtype": "float32"}, {"name": "expanded_conv_3_project_bn/beta", "shape": [40], "dtype": "float32"}, {"name": "expanded_conv_3_project_bn/moving_mean", "shape": [40], "dtype": "float32"}, {"name": "expanded_conv_3_project_bn/moving_variance", "shape": [40], "dtype": "float32"}, {"name": "expanded_conv_3_squeeze_excite_conv/kernel", "shape": [1, 1, 96, 24], "dtype": "float32"}, {"name": "expanded_conv_3_squeeze_excite_conv/bias", "shape": [24], "dtype": "float32"}, {"name": "expanded_conv_3_squeeze_excite_conv_1/kernel", "shape": [1, 1, 24, 96], "dtype": "float32"}, {"name": "expanded_conv_3_squeeze_excite_conv_1/bias", "shape": [96], "dtype": "float32"}, {"name": "expanded_conv_4_depthwise/kernel", "shape": [5, 5, 240, 1], "dtype": "float32"}, {"name": "expanded_conv_4_depthwise_bn/gamma", "shape": [240], "dtype": "float32"}, {"name": "expanded_conv_4_depthwise_bn/beta", "shape": [240], "dtype": "float32"}, {"name": "expanded_conv_4_depthwise_bn/moving_mean", "shape": [240], "dtype": "float32"}, {"name": "expanded_conv_4_depthwise_bn/moving_variance", "shape": [240], "dtype": "float32"}, {"name": "expanded_conv_4_expand/kernel", "shape": [1, 1, 40, 240], "dtype": "float32"}, {"name": "expanded_conv_4_expand_bn/gamma", "shape": [240], "dtype": "float32"}, {"name": "expanded_conv_4_expand_bn/beta", "shape": [240], "dtype": "float32"}, {"name": "expanded_conv_4_expand_bn/moving_mean", "shape": [240], "dtype": "float32"}, {"name": "expanded_conv_4_expand_bn/moving_variance", "shape": [240], "dtype": "float32"}, {"name": "expanded_conv_4_project/kernel", "shape": [1, 1, 240, 40], "dtype": "float32"}, {"name": "expanded_conv_4_project_bn/gamma", "shape": [40], "dtype": "float32"}, {"name": "expanded_conv_4_project_bn/beta", "shape": [40], "dtype": "float32"}, {"name": "expanded_conv_4_project_bn/moving_mean", "shape": [40], "dtype": "float32"}, {"name": "expanded_conv_4_project_bn/moving_variance", "shape": [40], "dtype": "float32"}, {"name": "expanded_conv_4_squeeze_excite_conv/kernel", "shape": [1, 1, 240, 64], "dtype": "float32"}, {"name": "expanded_conv_4_squeeze_excite_conv/bias", "shape": [64], "dtype": "float32"}, {"name": "expanded_conv_4_squeeze_excite_conv_1/kernel", "shape": [1, 1, 64, 240], "dtype": "float32"}, {"name": "expanded_conv_4_squeeze_excite_conv_1/bias", "shape": [240], "dtype": "float32"}, {"name": "expanded_conv_5_depthwise/kernel", "shape": [5, 5, 240, 1], "dtype": "float32"}, {"name": "expanded_conv_5_depthwise_bn/gamma", "shape": [240], "dtype": "float32"}, {"name": "expanded_conv_5_depthwise_bn/beta", "shape": [240], "dtype": "float32"}, {"name": "expanded_conv_5_depthwise_bn/moving_mean", "shape": [240], "dtype": "float32"}, {"name": "expanded_conv_5_depthwise_bn/moving_variance", "shape": [240], "dtype": "float32"}, {"name": "expanded_conv_5_expand/kernel", "shape": [1, 1, 40, 240], "dtype": "float32"}, {"name": "expanded_conv_5_expand_bn/gamma", "shape": [240], "dtype": "float32"}, {"name": "expanded_conv_5_expand_bn/beta", "shape": [240], "dtype": "float32"}, {"name": "expanded_conv_5_expand_bn/moving_mean", "shape": [240], "dtype": "float32"}, {"name": "expanded_conv_5_expand_bn/moving_variance", "shape": [240], "dtype": "float32"}, {"name": "expanded_conv_5_project/kernel", "shape": [1, 1, 240, 40], "dtype": "float32"}, {"name": "expanded_conv_5_project_bn/gamma", "shape": [40], "dtype": "float32"}, {"name": "expanded_conv_5_project_bn/beta", "shape": [40], "dtype": "float32"}, {"name": "expanded_conv_5_project_bn/moving_mean", "shape": [40], "dtype": "float32"}, {"name": "expanded_conv_5_project_bn/moving_variance", "shape": [40], "dtype": "float32"}, {"name": "expanded_conv_5_squeeze_excite_conv/kernel", "shape": [1, 1, 240, 64], "dtype": "float32"}, {"name": "expanded_conv_5_squeeze_excite_conv/bias", "shape": [64], "dtype": "float32"}, {"name": "expanded_conv_5_squeeze_excite_conv_1/kernel", "shape": [1, 1, 64, 240], "dtype": "float32"}, {"name": "expanded_conv_5_squeeze_excite_conv_1/bias", "shape": [240], "dtype": "float32"}, {"name": "expanded_conv_6_depthwise/kernel", "shape": [5, 5, 120, 1], "dtype": "float32"}, {"name": "expanded_conv_6_depthwise_bn/gamma", "shape": [120], "dtype": "float32"}, {"name": "expanded_conv_6_depthwise_bn/beta", "shape": [120], "dtype": "float32"}, {"name": "expanded_conv_6_depthwise_bn/moving_mean", "shape": [120], "dtype": "float32"}, {"name": "expanded_conv_6_depthwise_bn/moving_variance", "shape": [120], "dtype": "float32"}, {"name": "expanded_conv_6_expand/kernel", "shape": [1, 1, 40, 120], "dtype": "float32"}, {"name": "expanded_conv_6_expand_bn/gamma", "shape": [120], "dtype": "float32"}, {"name": "expanded_conv_6_expand_bn/beta", "shape": [120], "dtype": "float32"}, {"name": "expanded_conv_6_expand_bn/moving_mean", "shape": [120], "dtype": "float32"}, {"name": "expanded_conv_6_expand_bn/moving_variance", "shape": [120], "dtype": "float32"}, {"name": "expanded_conv_6_project/kernel", "shape": [1, 1, 120, 48], "dtype": "float32"}, {"name": "expanded_conv_6_project_bn/gamma", "shape": [48], "dtype": "float32"}, {"name": "expanded_conv_6_project_bn/beta", "shape": [48], "dtype": "float32"}, {"name": "expanded_conv_6_project_bn/moving_mean", "shape": [48], "dtype": "float32"}, {"name": "expanded_conv_6_project_bn/moving_variance", "shape": [48], "dtype": "float32"}, {"name": "expanded_conv_6_squeeze_excite_conv/kernel", "shape": [1, 1, 120, 32], "dtype": "float32"}, {"name": "expanded_conv_6_squeeze_excite_conv/bias", "shape": [32], "dtype": "float32"}, {"name": "expanded_conv_6_squeeze_excite_conv_1/kernel", "shape": [1, 1, 32, 120], "dtype": "float32"}, {"name": "expanded_conv_6_squeeze_excite_conv_1/bias", "shape": [120], "dtype": "float32"}, {"name": "expanded_conv_7_depthwise/kernel", "shape": [5, 5, 144, 1], "dtype": "float32"}, {"name": "expanded_conv_7_depthwise_bn/gamma", "shape": [144], "dtype": "float32"}, {"name": "expanded_conv_7_depthwise_bn/beta", "shape": [144], "dtype": "float32"}, {"name": "expanded_conv_7_depthwise_bn/moving_mean", "shape": [144], "dtype": "float32"}, {"name": "expanded_conv_7_depthwise_bn/moving_variance", "shape": [144], "dtype": "float32"}, {"name": "expanded_conv_7_expand/kernel", "shape": [1, 1, 48, 144], "dtype": "float32"}, {"name": "expanded_conv_7_expand_bn/gamma", "shape": [144], "dtype": "float32"}, {"name": "expanded_conv_7_expand_bn/beta", "shape": [144], "dtype": "float32"}, {"name": "expanded_conv_7_expand_bn/moving_mean", "shape": [144], "dtype": "float32"}, {"name": "expanded_conv_7_expand_bn/moving_variance", "shape": [144], "dtype": "float32"}, {"name": "expanded_conv_7_project/kernel", "shape": [1, 1, 144, 48], "dtype": "float32"}, {"name": "expanded_conv_7_project_bn/gamma", "shape": [48], "dtype": "float32"}, {"name": "expanded_conv_7_project_bn/beta", "shape": [48], "dtype": "float32"}, {"name": "expanded_conv_7_project_bn/moving_mean", "shape": [48], "dtype": "float32"}, {"name": "expanded_conv_7_project_bn/moving_variance", "shape": [48], "dtype": "float32"}, {"name": "expanded_conv_7_squeeze_excite_conv/kernel", "shape": [1, 1, 144, 40], "dtype": "float32"}, {"name": "expanded_conv_7_squeeze_excite_conv/bias", "shape": [40], "dtype": "float32"}, {"name": "expanded_conv_7_squeeze_excite_conv_1/kernel", "shape": [1, 1, 40, 144], "dtype": "float32"}, {"name": "expanded_conv_7_squeeze_excite_conv_1/bias", "shape": [144], "dtype": "float32"}, {"name": "expanded_conv_8_depthwise/kernel", "shape": [5, 5, 288, 1], "dtype": "float32"}, {"name": "expanded_conv_8_depthwise_bn/gamma", "shape": [288], "dtype": "float32"}, {"name": "expanded_conv_8_depthwise_bn/beta", "shape": [288], "dtype": "float32"}, {"name": "expanded_conv_8_depthwise_bn/moving_mean", "shape": [288], "dtype": "float32"}, {"name": "expanded_conv_8_depthwise_bn/moving_variance", "shape": [288], "dtype": "float32"}, {"name": "expanded_conv_8_expand/kernel", "shape": [1, 1, 48, 288], "dtype": "float32"}, {"name": "expanded_conv_8_expand_bn/gamma", "shape": [288], "dtype": "float32"}, {"name": "expanded_conv_8_expand_bn/beta", "shape": [288], "dtype": "float32"}, {"name": "expanded_conv_8_expand_bn/moving_mean", "shape": [288], "dtype": "float32"}, {"name": "expanded_conv_8_expand_bn/moving_variance", "shape": [288], "dtype": "float32"}, {"name": "expanded_conv_8_project/kernel", "shape": [1, 1, 288, 96], "dtype": "float32"}, {"name": "expanded_conv_8_project_bn/gamma", "shape": [96], "dtype": "float32"}, {"name": "expanded_conv_8_project_bn/beta", "shape": [96], "dtype": "float32"}, {"name": "expanded_conv_8_project_bn/moving_mean", "shape": [96], "dtype": "float32"}, {"name": "expanded_conv_8_project_bn/moving_variance", "shape": [96], "dtype": "float32"}, {"name": "expanded_conv_8_squeeze_excite_conv/kernel", "shape": [1, 1, 288, 72], "dtype": "float32"}, {"name": "expanded_conv_8_squeeze_excite_conv/bias", "shape": [72], "dtype": "float32"}, {"name": "expanded_conv_8_squeeze_excite_conv_1/kernel", "shape": [1, 1, 72, 288], "dtype": "float32"}, {"name": "expanded_conv_8_squeeze_excite_conv_1/bias", "shape": [288], "dtype": "float32"}, {"name": "expanded_conv_9_depthwise/kernel", "shape": [5, 5, 576, 1], "dtype": "float32"}, {"name": "expanded_conv_9_depthwise_bn/gamma", "shape": [576], "dtype": "float32"}, {"name": "expanded_conv_9_depthwise_bn/beta", "shape": [576], "dtype": "float32"}, {"name": "expanded_conv_9_depthwise_bn/moving_mean", "shape": [576], "dtype": "float32"}, {"name": "expanded_conv_9_depthwise_bn/moving_variance", "shape": [576], "dtype": "float32"}, {"name": "expanded_conv_9_expand/kernel", "shape": [1, 1, 96, 576], "dtype": "float32"}, {"name": "expanded_conv_9_expand_bn/gamma", "shape": [576], "dtype": "float32"}, {"name": "expanded_conv_9_expand_bn/beta", "shape": [576], "dtype": "float32"}, {"name": "expanded_conv_9_expand_bn/moving_mean", "shape": [576], "dtype": "float32"}, {"name": "expanded_conv_9_expand_bn/moving_variance", "shape": [576], "dtype": "float32"}, {"name": "expanded_conv_9_project/kernel", "shape": [1, 1, 576, 96], "dtype": "float32"}, {"name": "expanded_conv_9_project_bn/gamma", "shape": [96], "dtype": "float32"}, {"name": "expanded_conv_9_project_bn/beta", "shape": [96], "dtype": "float32"}, {"name": "expanded_conv_9_project_bn/moving_mean", "shape": [96], "dtype": "float32"}, {"name": "expanded_conv_9_project_bn/moving_variance", "shape": [96], "dtype": "float32"}, {"name": "expanded_conv_9_squeeze_excite_conv/kernel", "shape": [1, 1, 576, 144], "dtype": "float32"}, {"name": "expanded_conv_9_squeeze_excite_conv/bias", "shape": [144], "dtype": "float32"}, {"name": "expanded_conv_9_squeeze_excite_conv_1/kernel", "shape": [1, 1, 144, 576], "dtype": "float32"}, {"name": "expanded_conv_9_squeeze_excite_conv_1/bias", "shape": [576], "dtype": "float32"}, {"name": "expanded_conv_depthwise/kernel", "shape": [3, 3, 16, 1], "dtype": "float32"}, {"name": "expanded_conv_depthwise_bn/gamma", "shape": [16], "dtype": "float32"}, {"name": "expanded_conv_depthwise_bn/beta", "shape": [16], "dtype": "float32"}, {"name": "expanded_conv_depthwise_bn/moving_mean", "shape": [16], "dtype": "float32"}, {"name": "expanded_conv_depthwise_bn/moving_variance", "shape": [16], "dtype": "float32"}, {"name": "expanded_conv_project/kernel", "shape": [1, 1, 16, 16], "dtype": "float32"}, {"name": "expanded_conv_project_bn/gamma", "shape": [16], "dtype": "float32"}, {"name": "expanded_conv_project_bn/beta", "shape": [16], "dtype": "float32"}, {"name": "expanded_conv_project_bn/moving_mean", "shape": [16], "dtype": "float32"}, {"name": "expanded_conv_project_bn/moving_variance", "shape": [16], "dtype": "float32"}, {"name": "expanded_conv_squeeze_excite_conv/kernel", "shape": [1, 1, 16, 8], "dtype": "float32"}, {"name": "expanded_conv_squeeze_excite_conv/bias", "shape": [8], "dtype": "float32"}, {"name": "expanded_conv_squeeze_excite_conv_1/kernel", "shape": [1, 1, 8, 16], "dtype": "float32"}, {"name": "expanded_conv_squeeze_excite_conv_1/bias", "shape": [16], "dtype": "float32"}]}]}
